…
      sampler {
        min_scale: 0.3
        max_scale: 1
        min_aspect_ratio: 0.5
        max_aspect_ratio: 2
      }
      sample_constraint {
        min_jaccard_overlap: 0.9
      }
      max_sample: 1
      max_trials: 50
    }
    batch_sampler {
      sampler {
        min_scale: 0.3
        max_scale: 1
        min_aspect_ratio: 0.5
        max_aspect_ratio: 2
      }
      sample_constraint {
        max_jaccard_overlap: 1
      }
      max_sample: 1
      max_trials: 50
    }
    label_map_file: "data/VOC0712/labelmap_voc.prototxt"
  }
}
layer {
  name: "conv1_1"
  type: "Convolution"
  bottom: "data"
  top: "conv1_1"
  param {
    lr_mult: 1
    decay_mult: 1
  }
  param {
    lr_mult: 2
    decay_mult: 0
  }
  convolution_param {
    num_output: 64
    pad: 1
    kernel_size: 3
    weight_filler {
      type: "xavier"
    }
    bias_filler {
      type: "constant"
      value: 0
    }
  }
}
layer {
  name: "relu1_1"
  type: "ReLU"
  bottom: "conv1_1"
  top: "conv1_1"
}
layer {
  name: "conv1_2"
  type: "Convolution"
  bottom: "conv1_1"
  top: "conv1_2"
  param {
    lr_mult: 1
    decay_mult: 1
  }
  param {
    lr_mult: 2
    decay_mult: 0
  }
  convolution_param {
    num_output: 64
    pad: 1
    kernel_size: 3
    weight_filler {
      type: "xavier"
    }
    bias_filler {
      type: "constant"
      value: 0
    }
  }
}
layer {
  name: "relu1_2"
  type: "ReLU"
  bottom: "conv1_2"
  top: "conv1_2"
}
layer {
  name: "pool1"
  type: "Pooling"
  bottom: "conv1_2"
  top: "pool1"
  pooling_param {
    pool: MAX
    kernel_size: 2
    stride: 2
  }
}
layer {
  name: "conv2_1"
  type: "Convolution"
  bottom: "pool1"
  top: "conv2_1"
  param {
    lr_mult: 1
    decay_mult: 1
  }
  param {
    lr_mult: 2
    decay_mult: 0
  }
  convolution_param {
    num_output: 128
    pad: 1
    kernel_size: 3
    weight_filler {
      type: "xavier"
    }
    bias_filler {
      type: "constant"
      value: 0
    }
  }
}
layer {
  name: "relu2_1"
  type: "ReLU"
  bottom: "conv2_1"
  top: "conv2_1"
}
layer {
  name: "conv2_2"
  type: "Convolution"
  bottom: "conv2_1"
  top: "conv2_2"
  param {
    lr_mult: 1
    decay_mult: 1
  }
  param {
    lr_mult: 2
    decay_mult: 0
  }
  convolution_param {
    num_output: 128
    pad: 1
    kernel_size: 3
    weight_filler {
      type: "xavier"
    }
    bias_filler {
      type: "constant"
      value: 0
    }
  }
}
layer {
  name: "relu2_2"
  type: "ReLU"
  bottom: "conv2_2"
  top: "conv2_2"
}
layer {
  name: "pool2"
  type: "Pooling"
  bottom: "conv2_2"
  top: "pool2"
  pooling_param {
    pool: MAX
    kernel_size: 2
    stride: 2
  }
}
layer {
  name: "conv3_1"
  type: "Convolution"
  bottom: "pool2"
  top: "conv3_1"
  param {
    lr_mult: 1
    decay_mult: 1
  }
  param {
    lr_mult: 2
    decay_mult: 0
  }
  convolution_param {
    num_output: 256
    pad: 1
    kernel_size: 3
    weight_filler {
      type: "xavier"
    }
    bias_filler {
      type: "constant"
      value: 0
    }
  }
}
layer {
  name: "relu3_1"
  type: "ReLU"
  bottom: "conv3_1"
  top: "conv3_1"
}
layer {
  name: "conv3_2"
  type: "Convolution"
  bottom: "conv3_1"
  top: "conv3_2"
  param {
    lr_mult: 1
    decay_mult: 1
  }
  param {
    lr_mult: 2
    decay_mult: 0
  }
  convolution_param {
    num_output: 256
    pad: 1
    kernel_size: 3
    weight_filler {
      type: "xavier"
    }
    bias_filler {
      type: "constant"
      value: 0
    }
  }
}
layer {
  name: "relu3_2"
  type: "ReLU"
  bottom: "conv3_2"
  top: "conv3_2"
}
layer {
  name: "conv3_3"
  type: "Convolution"
  bottom: "conv3_2"
  top: "conv3_3"
  param {
    lr_mult: 1
    decay_mult: 1
  }
  param {
    lr_mult: 2
    decay_mult: 0
  }
  convolution_param {
    num_output: 256
    pad: 1
    kernel_size: 3
    weight_filler {
      type: "xavier"
    }
    bias_filler {
      type: "constant"
      value: 0
    }
  }
}
layer {
  name: "relu3_3"
  type: "ReLU"
  bottom: "conv3_3"
  top: "conv3_3"
}
layer {
  name: "pool3"
  type: "Pooling"
  bottom: "conv3_3"
  top: "pool3"
  pooling_param {
    pool: MAX
    kernel_size: 2
    stride: 2
  }
}
layer {
  name: "conv4_1"
  type: "Convolution"
  bottom: "pool3"
  top: "conv4_1"
  param {
    lr_mult: 1
    decay_mult: 1
  }
  param {
    lr_mult: 2
    decay_mult: 0
  }
  convolution_param {
    num_output: 512
    pad: 1
    kernel_size: 3
    weight_filler {
      type: "xavier"
    }
    bias_filler {
      type: "constant"
      value: 0
    }
  }
}
layer {
  name: "relu4_1"
  type: "ReLU"
  bottom: "conv4_1"
  top: "conv4_1"
}
layer {
  name: "conv4_2"
  type: "Convolution"
  bottom: "conv4_1"
  top: "conv4_2"
  param {
    lr_mult: 1
    decay_mult: 1
  }
  param {
    lr_mult: 2
    decay_mult: 0
  }
  convolution_param {
    num_output: 512
    pad: 1
    kernel_size: 3
    weight_filler {
      type: "xavier"
    }
    bias_filler {
      type: "constant"
      value: 0
    }
  }
}
layer {
  name: "relu4_2"
  type: "ReLU"
  bottom: "conv4_2"
  top: "conv4_2"
}
layer {
  name: "conv4_3"
  type: "Convolution"
  bottom: "conv4_2"
  top: "conv4_3"
  param {
    lr_mult: 1
    decay_mult: 1
  }
  param {
    lr_mult: 2
    decay_mult: 0
  }
  convolution_param {
    num_output: 512
    pad: 1
    kernel_size: 3
    weight_filler {
      type: "xavier"
    }
    bias_filler {
      type: "constant"
      value: 0
    }
  }
}
layer {
  name: "relu4_3"
  type: "ReLU"
  bottom: "conv4_3"
  top: "conv4_3"
}
layer {
  name: "pool4"
  type: "Pooling"
  bottom: "conv4_3"
  top: "pool4"
  pooling_param {
    pool: MAX
    kernel_size: 2
    stride: 2
  }
}
layer {
  name: "conv5_1"
  type: "Convolution"
  bottom: "pool4"
  top: "conv5_1"
  param {
    lr_mult: 1
    decay_mult: 1
  }
  param {
    lr_mult: 2
    decay_mult: 0
  }
  convolution_param {
    num_output: 512
    pad: 1
    kernel_size: 3
    weight_filler {
      type: "xavier"
    }
    bias_filler {
      type: "constant"
      value: 0
    }
    dilation: 1
  }
}
layer {
  name: "relu5_1"
  type: "ReLU"
  bottom: "conv5_1"
  top: "conv5_1"
}
layer {
  name: "conv5_2"
  type: "Convolution"
  bottom: "conv5_1"
  top: "conv5_2"
  param {
    lr_mult: 1
    decay_mult: 1
  }
  param {
    lr_mult: 2
    decay_mult: 0
  }
  convolution_param {
    num_output: 512
    pad: 1
    kernel_size: 3
    weight_filler {
      type: "xavier"
    }
    bias_filler {
      type: "constant"
      value: 0
    }
    dilation: 1
  }
}
layer {
  name: "relu5_2"
  type: "ReLU"
  bottom: "conv5_2"
  top: "conv5_2"
}
layer {
  name: "conv5_3"
  type: "Convolution"
  bottom: "conv5_2"
  top: "conv5_3"
  param {
    lr_mult: 1
    decay_mult: 1
  }
  param {
    lr_mult: 2
    decay_mult: 0
  }
  convolution_param {
    num_output: 512
    pad: 1
    kernel_size: 3
    weight_filler {
      type: "xavier"
    }
    bias_filler {
      type: "constant"
      value: 0
    }
    dilation: 1
  }
}
layer {
  name: "relu5_3"
  type: "ReLU"
  bottom: "conv5_3"
  top: "conv5_3"
}
layer {
  name: "pool5"
  type: "Pooling"
  bottom: "conv5_3"
  top: "pool5"
  pooling_param {
    pool: MAX
    kernel_size: 3
    stride: 1
    pad: 1
  }
}
layer {
  name: "fc6"
  type: "Convolution"
  bottom: "pool5"
  top: "fc6"
  param {
    lr_mult: 1
    decay_mult: 1
  }
  param {
    lr_mult: 2
    decay_mult: 0
  }
  convolution_param {
    num_output: 1024
    pad: 6
    kernel_size: 3
    weight_filler {
      type: "xavier"
    }
    bias_filler {
      type: "constant"
      value: 0
    }
    dilation: 6
  }
}
layer {
  name: "relu6"
  type: "ReLU"
  bottom: "fc6"
  top: "fc6"
}
layer {
  name: "fc7"
  type: "Convolution"
  bottom: "fc6"
  top: "fc7"
  param {
    lr_mult: 1
    decay_mult: 1
  }
  param {
    lr_mult: 2
    decay_mult: 0
  }
  convolution_param {
    num_output: 1024
    kernel_size: 1
    weight_filler {
      type: "xavier"
    }
    bias_filler {
      type: "constant"
      value: 0
    }
  }
}
layer {
  name: "relu7"
  type: "ReLU"
  bottom: "fc7"
  top: "fc7"
}
layer {
  name: "conv6_1"
  type: "Convolution"
  bottom: "fc7"
  top: "conv6_1"
  param {
    lr_mult: 1
    decay_mult: 1
  }
  param {
    lr_mult: 2
    decay_mult: 0
  }
  convolution_param {
    num_output: 256
    pad: 0
    kernel_size: 1
    stride: 1
    weight_filler {
      type: "xavier"
    }
    bias_filler {
      type: "constant"
      value: 0
    }
  }
}
layer {
  name: "conv6_1_relu"
  type: "ReLU"
  bottom: "conv6_1"
  top: "conv6_1"
}
layer {
  name: "conv6_2"
  type: "Convolution"
  bottom: "conv6_1"
  top: "conv6_2"
  param {
    lr_mult: 1
    decay_mult: 1
  }
  param {
    lr_mult: 2
    decay_mult: 0
  }
  convolution_param {
    num_output: 512
    pad: 1
    kernel_size: 3
    stride: 2
    weight_filler {
      type: "xavier"
    }
    bias_filler {
      type: "constant"
      value: 0
    }
  }
}
layer {
  name: "conv6_2_relu"
  type: "ReLU"
  bottom: "conv6_2"
  top: "conv6_2"
}
layer {
  name: "conv7_1"
  type: "Convolution"
  bottom: "conv6_2"
  top: "conv7_1"
  param {
    lr_mult: 1
    decay_mult: 1
  }
  param {
    lr_mult: 2
    decay_mult: 0
  }
  convolution_param {
    num_output: 128
    pad: 0
    kernel_size: 1
    stride: 1
    weight_filler {
      type: "xavier"
    }
    bias_filler {
      type: "constant"
      value: 0
    }
  }
}
layer {
  name: "conv7_1_relu"
  type: "ReLU"
  bottom: "conv7_1"
  top: "conv7_1"
}
layer {
  name: "conv7_2"
  type: "Convolution"
  bottom: "conv7_1"
  top: "conv7_2"
  param {
    lr_mult: 1
    decay_mult: 1
  }
  param {
    lr_mult: 2
    decay_mult: 0
  }
  convolution_param {
    num_output: 256
    pad: 1
    kernel_size: 3
    stride: 2
    weight_filler {
      type: "xavier"
    }
    bias_filler {
      type: "constant"
      value: 0
    }
  }
}
layer {
  name: "conv7_2_relu"
  type: "ReLU"
  bottom: "conv7_2"
  top: "conv7_2"
}
layer {
  name: "conv8_1"
  type: "Convolution"
  bottom: "conv7_2"
  top: "conv8_1"
  param {
    lr_mult: 1
    decay_mult: 1
  }
  param {
    lr_mult: 2
    decay_mult: 0
  }
  convolution_param {
    num_output: 128
    pad: 0
    kernel_size: 1
    stride: 1
    weight_filler {
      type: "xavier"
    }
    bias_filler {
      type: "constant"
      value: 0
    }
  }
}
layer {
  name: "conv8_1_relu"
  type: "ReLU"
  bottom: "conv8_1"
  top: "conv8_1"
}
layer {
  name: "conv8_2"
  type: "Convolution"
  bottom: "conv8_1"
  top: "conv8_2"
  param {
    lr_mult: 1
    decay_mult: 1
  }
  param {
    lr_mult: 2
    decay_mult: 0
  }
  convolution_param {
    num_output: 256
    pad: 0
    kernel_size: 3
    stride: 1
    weight_filler {
      type: "xavier"
    }
    bias_filler {
      type: "constant"
      value: 0
    }
  }
}
layer {
  name: "conv8_2_relu"
  type: "ReLU"
  bottom: "conv8_2"
  top: "conv8_2"
}
layer {
  name: "conv9_1"
  type: "Convolution"
  bottom: "conv8_2"
  top: "conv9_1"
  param {
    lr_mult: 1
    decay_mult: 1
  }
  param {
    lr_mult: 2
    decay_mult: 0
  }
  convolution_param {
    num_output: 128
    pad: 0
    kernel_size: 1
    stride: 1
    weight_filler {
      type: "xavier"
    }
    bias_filler {
      type: "constant"
      value: 0
    }
  }
}
layer {
  name: "conv9_1_relu"
  type: "ReLU"
  bottom: "conv9_1"
  top: "conv9_1"
}
layer {
  name: "conv9_2"
  type: "Convolution"
  bottom: "conv9_1"
  top: "conv9_2"
  param {
    lr_mult: 1
    decay_mult: 1
  }
  param {
    lr_mult: 2
    decay_mult: 0
  }
  convolution_param {
    num_output: 256
    pad: 0
    kernel_size: 3
    stride: 1
    weight_filler {
      type: "xavier"
    }
    bias_filler {
      type: "constant"
      value: 0
    }
  }
}
layer {
  name: "conv9_2_relu"
  type: "ReLU"
  bottom: "conv9_2"
  top: "conv9_2"
}
layer {
  name: "conv4_3_norm"
  type: "Normalize"
  bottom: "conv4_3"
  top: "conv4_3_norm"
  norm_param {
    across_spatial: false
    scale_filler {
      type: "constant"
      value: 20
    }
    channel_shared: false
  }
}
layer {
  name: "conv4_3_norm_mbox_loc"
  type: "Convolution"
  bottom: "conv4_3_norm"
  top: "conv4_3_norm_mbox_loc"
  param {
    lr_mult: 1
    decay_mult: 1
  }
  param {
    lr_mult: 2
    decay_mult: 0
  }
  convolution_param {
    num_output: 16
    pad: 1
    kernel_size: 3
    stride: 1
    weight_filler {
      type: "xavier"
    }
    bias_filler {
      type: "constant"
      value: 0
    }
  }
}
layer {
  name: "conv4_3_norm_mbox_loc_perm"
  type: "Permute"
  bottom: "conv4_3_norm_mbox_loc"
  top: "conv4_3_norm_mbox_loc_perm"
  permute_param {
    order: 0
    order: 2
    order: 3
    order: 1
  }
}
layer {
  name: "conv4_3_norm_mbox_loc_flat"
  type: "Flatten"
  bottom: "conv4_3_norm_mbox_loc_perm"
  top: "conv4_3_norm_mbox_loc_flat"
  flatten_param {
    axis: 1
  }
}
layer {
  name: "conv4_3_norm_mbox_conf"
  type: "Convolution"
  bottom: "conv4_3_norm"
  top: "conv4_3_norm_mbox_conf"
  param {
    lr_mult: 1
    decay_mult: 1
  }
  param {
    lr_mult: 2
    decay_mult: 0
  }
  convolution_param {
    num_output: 84
    pad: 1
    kernel_size: 3
    stride: 1
    weight_filler {
      type: "xavier"
    }
    bias_filler {
      type: "constant"
      value: 0
    }
  }
}
layer {
  name: "conv4_3_norm_mbox_conf_perm"
  type: "Permute"
  bottom: "conv4_3_norm_mbox_conf"
  top: "conv4_3_norm_mbox_conf_perm"
  permute_param {
    order: 0
    order: 2
    order: 3
    order: 1
  }
}
layer {
  name: "conv4_3_norm_mbox_conf_flat"
  type: "Flatten"
  bottom: "conv4_3_norm_mbox_conf_perm"
  top: "conv4_3_norm_mbox_conf_flat"
  flatten_param {
    axis: 1
  }
}
layer {
  name: "conv4_3_norm_mbox_priorbox"
  type: "PriorBox"
  bottom: "conv4_3_norm"
  bottom: "data"
  top: "conv4_3_norm_mbox_priorbox"
  prior_box_param {
    min_size: 30
    max_size: 60
    aspect_ratio: 2
    flip: true
    clip: false
    variance: 0.1
    variance: 0.1
    variance: 0.2
    variance: 0.2
    step: 8
    offset: 0.5
  }
}
layer {
  name: "fc7_mbox_loc"
  type: "Convolution"
  bottom: "fc7"
  top: "fc7_mbox_loc"
  param {
    lr_mult: 1
    decay_mult: 1
  }
  param {
    lr_mult: 2
    decay_mult: 0
  }
  convolution_param {
    num_output: 24
    pad: 1
    kernel_size: 3
    stride: 1
    weight_filler {
      type: "xavier"
    }
    bias_filler {
      type: "constant"
      value: 0
    }
  }
}
layer {
  name: "fc7_mbox_loc_perm"
  type: "Permute"
  bottom: "fc7_mbox_loc"
  top: "fc7_mbox_loc_perm"
  permute_param {
    order: 0
    order: 2
    order: 3
    order: 1
  }
}
layer {
  name: "fc7_mbox_loc_flat"
  type: "Flatten"
  bottom: "fc7_mbox_loc_perm"
  top: "fc7_mbox_loc_flat"
  flatten_param {
    axis: 1
  }
}
layer {
  name: "fc7_mbox_conf"
  type: "Convolution"
  bottom: "fc7"
  top: "fc7_mbox_conf"
  param {
    lr_mult: 1
    decay_mult: 1
  }
  param {
    lr_mult: 2
    decay_mult: 0
  }
  convolution_param {
    num_output: 126
    pad: 1
    kernel_size: 3
    stride: 1
    weight_filler {
      type: "xavier"
    }
    bias_filler {
      type: "constant"
      value: 0
    }
  }
}
layer {
  name: "fc7_mbox_conf_perm"
  type: "Permute"
  bottom: "fc7_mbox_conf"
  top: "fc7_mbox_conf_perm"
  permute_param {
    order: 0
    order: 2
    order: 3
    order: 1
  }
}
layer {
  name: "fc7_mbox_conf_flat"
  type: "Flatten"
  bottom: "fc7_mbox_conf_perm"
  top: "fc7_mbox_conf_flat"
  flatten_param {
    axis: 1
  }
}
layer {
  name: "fc7_mbox_priorbox"
  type: "PriorBox"
  bottom: "fc7"
  bottom: "data"
  top: "fc7_mbox_priorbox"
  prior_box_param {
    min_size: 60
    max_size: 111
    aspect_ratio: 2
    aspect_ratio: 3
    flip: true
    clip: false
    variance: 0.1
    variance: 0.1
    variance: 0.2
    variance: 0.2
    step: 16
    offset: 0.5
  }
}
layer {
  name: "conv6_2_mbox_loc"
  type: "Convolution"
  bottom: "conv6_2"
  top: "conv6_2_mbox_loc"
  param {
    lr_mult: 1
    decay_mult: 1
  }
  param {
    lr_mult: 2
    decay_mult: 0
  }
  convolution_param {
    num_output: 24
    pad: 1
    kernel_size: 3
    stride: 1
    weight_filler {
      type: "xavier"
    }
    bias_filler {
      type: "constant"
      value: 0
    }
  }
}
layer {
  name: "conv6_2_mbox_loc_perm"
  type: "Permute"
  bottom: "conv6_2_mbox_loc"
  top: "conv6_2_mbox_loc_perm"
  permute_param {
    order: 0
    order: 2
    order: 3
    order: 1
  }
}
layer {
  name: "conv6_2_mbox_loc_flat"
  type: "Flatten"
  bottom: "conv6_2_mbox_loc_perm"
  top: "conv6_2_mbox_loc_flat"
  flatten_param {
    axis: 1
  }
}
layer {
  name: "conv6_2_mbox_conf"
  type: "Convolution"
  bottom: "conv6_2"
  top: "conv6_2_mbox_conf"
  param {
    lr_mult: 1
    decay_mult: 1
  }
  param {
    lr_mult: 2
    decay_mult: 0
  }
  convolution_param {
    num_output: 126
    pad: 1
    kernel_size: 3
    stride: 1
    weight_filler {
      type: "xavier"
    }
    bias_filler {
      type: "constant"
      value: 0
    }
  }
}
layer {
  name: "conv6_2_mbox_conf_perm"
  type: "Permute"
  bottom: "conv6_2_mbox_conf"
  top: "conv6_2_mbox_conf_perm"
  permute_param {
    order: 0
    order: 2
    order: 3
    order: 1
  }
}
layer {
  name: "conv6_2_mbox_conf_flat"
  type: "Flatten"
  bottom: "conv6_2_mbox_conf_perm"
  top: "conv6_2_mbox_conf_flat"
  flatten_param {
    axis: 1
  }
}
layer {
  name: "conv6_2_mbox_priorbox"
  type: "PriorBox"
  bottom: "conv6_2"
  bottom: "data"
  top: "conv6_2_mbox_priorbox"
  prior_box_param {
    min_size: 111
    max_size: 162
    aspect_ratio: 2
    aspect_ratio: 3
    flip: true
    clip: false
    variance: 0.1
    variance: 0.1
    variance: 0.2
    variance: 0.2
    step: 32
    offset: 0.5
  }
}
layer {
  name: "conv7_2_mbox_loc"
  type: "Convolution"
  bottom: "conv7_2"
  top: "conv7_2_mbox_loc"
  param {
    lr_mult: 1
    decay_mult: 1
  }
  param {
    lr_mult: 2
    decay_mult: 0
  }
  convolution_param {
    num_output: 24
    pad: 1
    kernel_size: 3
    stride: 1
    weight_filler {
      type: "xavier"
    }
    bias_filler {
      type: "constant"
      value: 0
    }
  }
}
layer {
  name: "conv7_2_mbox_loc_perm"
  type: "Permute"
  bottom: "conv7_2_mbox_loc"
  top: "conv7_2_mbox_loc_perm"
  permute_param {
    order: 0
    order: 2
    order: 3
    order: 1
  }
}
layer {
  name: "conv7_2_mbox_loc_flat"
  type: "Flatten"
  bottom: "conv7_2_mbox_loc_perm"
  top: "conv7_2_mbox_loc_flat"
  flatten_param {
    axis: 1
  }
}
layer {
  name: "conv7_2_mbox_conf"
  type: "Convolution"
  bottom: "conv7_2"
  top: "conv7_2_mbox_conf"
  param {
    lr_mult: 1
    decay_mult: 1
  }
  param {
    lr_mult: 2
    decay_mult: 0
  }
  convolution_param {
    num_output: 126
    pad: 1
    kernel_size: 3
    stride: 1
    weight_filler {
      type: "xavier"
    }
    bias_filler {
      type: "constant"
      value: 0
    }
  }
}
layer {
  name: "conv7_2_mbox_conf_perm"
  type: "Permute"
  bottom: "conv7_2_mbox_conf"
  top: "conv7_2_mbox_conf_perm"
  permute_param {
    order: 0
    order: 2
    order: 3
    order: 1
  }
}
layer {
  name: "conv7_2_mbox_conf_flat"
  type: "Flatten"
  bottom: "conv7_2_mbox_conf_perm"
  top: "conv7_2_mbox_conf_flat"
  flatten_param {
    axis: 1
  }
}
layer {
  name: "conv7_2_mbox_priorbox"
  type: "PriorBox"
  bottom: "conv7_2"
  bottom: "data"
  top: "conv7_2_mbox_priorbox"
  prior_box_param {
    min_size: 162
    max_size: 213
    aspect_ratio: 2
    aspect_ratio: 3
    flip: true
    clip: false
    variance: 0.1
    variance: 0.1
    variance: 0.2
    variance: 0.2
    step: 64
    offset: 0.5
  }
}
layer {
  name: "conv8_2_mbox_loc"
  type: "Convolution"
  bottom: "conv8_2"
  top: "conv8_2_mbox_loc"
  param {
    lr_mult: 1
    decay_mult: 1
  }
  param {
    lr_mult: 2
    decay_mult: 0
  }
  convolution_param {
    num_output: 16
    pad: 1
    kernel_size: 3
    stride: 1
    weight_filler {
      type: "xavier"
    }
    bias_filler {
      type: "constant"
      value: 0
    }
  }
}
layer {
  name: "conv8_2_mbox_loc_perm"
  type: "Permute"
  bottom: "conv8_2_mbox_loc"
  top: "conv8_2_mbox_loc_perm"
  permute_param {
    order: 0
    order: 2
    order: 3
    order: 1
  }
}
layer {
  name: "conv8_2_mbox_loc_flat"
  type: "Flatten"
  bottom: "conv8_2_mbox_loc_perm"
  top: "conv8_2_mbox_loc_flat"
  flatten_param {
    axis: 1
  }
}
layer {
  name: "conv8_2_mbox_conf"
  type: "Convolution"
  bottom: "conv8_2"
  top: "conv8_2_mbox_conf"
  param {
    lr_mult: 1
    decay_mult: 1
  }
  param {
    lr_mult: 2
    decay_mult: 0
  }
  convolution_param {
    num_output: 84
    pad: 1
    kernel_size: 3
    stride: 1
    weight_filler {
      type: "xavier"
    }
    bias_filler {
      type: "constant"
      value: 0
    }
  }
}
layer {
  name: "conv8_2_mbox_conf_perm"
  type: "Permute"
  bottom: "conv8_2_mbox_conf"
  top: "conv8_2_mbox_conf_perm"
  permute_param {
    order: 0
    order: 2
    order: 3
    order: 1
  }
}
layer {
  name: "conv8_2_mbox_conf_flat"
  type: "Flatten"
  bottom: "conv8_2_mbox_conf_perm"
  top: "conv8_2_mbox_conf_flat"
  flatten_param {
    axis: 1
  }
}
layer {
  name: "conv8_2_mbox_priorbox"
  type: "PriorBox"
  bottom: "conv8_2"
  bottom: "data"
  top: "conv8_2_mbox_priorbox"
  prior_box_param {
    min_size: 213
    max_size: 264
    aspect_ratio: 2
    flip: true
    clip: false
    variance: 0.1
    variance: 0.1
    variance: 0.2
    variance: 0.2
    step: 100
    offset: 0.5
  }
}
layer {
  name: "conv9_2_mbox_loc"
  type: "Convolution"
  bottom: "conv9_2"
  top: "conv9_2_mbox_loc"
  param {
    lr_mult: 1
    decay_mult: 1
  }
  param {
    lr_mult: 2
    decay_mult: 0
  }
  convolution_param {
    num_output: 16
    pad: 1
    kernel_size: 3
    stride: 1
    weight_filler {
      type: "xavier"
    }
    bias_filler {
      type: "constant"
      value: 0
    }
  }
}
layer {
  name: "conv9_2_mbox_loc_perm"
  type: "Permute"
  bottom: "conv9_2_mbox_loc"
  top: "conv9_2_mbox_loc_perm"
  permute_param {
    order: 0
    order: 2
    order: 3
    order: 1
  }
}
layer {
  name: "conv9_2_mbox_loc_flat"
  type: "Flatten"
  bottom: "conv9_2_mbox_loc_perm"
  top: "conv9_2_mbox_loc_flat"
  flatten_param {
    axis: 1
  }
}
layer {
  name: "conv9_2_mbox_conf"
  type: "Convolution"
  bottom: "conv9_2"
  top: "conv9_2_mbox_conf"
  param {
    lr_mult: 1
    decay_mult: 1
  }
  param {
    lr_mult: 2
    decay_mult: 0
  }
  convolution_param {
    num_output: 84
    pad: 1
    kernel_size: 3
    stride: 1
    weight_filler {
      type: "xavier"
    }
    bias_filler {
      type: "constant"
      value: 0
    }
  }
}
layer {
  name: "conv9_2_mbox_conf_perm"
  type: "Permute"
  bottom: "conv9_2_mbox_conf"
  top: "conv9_2_mbox_conf_perm"
  permute_param {
    order: 0
    order: 2
    order: 3
    order: 1
  }
}
layer {
  name: "conv9_2_mbox_conf_flat"
  type: "Flatten"
  bottom: "conv9_2_mbox_conf_perm"
  top: "conv9_2_mbox_conf_flat"
  flatten_param {
    axis: 1
  }
}
layer {
  name: "conv9_2_mbox_priorbox"
  type: "PriorBox"
  bottom: "conv9_2"
  bottom: "data"
  top: "conv9_2_mbox_priorbox"
  prior_box_param {
    min_size: 264
    max_size: 315
    aspect_ratio: 2
    flip: true
    clip: false
    variance: 0.1
    variance: 0.1
    variance: 0.2
    variance: 0.2
    step: 300
    offset: 0.5
  }
}
layer {
  name: "mbox_loc"
  type: "Concat"
  bottom: "conv4_3_norm_mbox_loc_flat"
  bottom: "fc7_mbox_loc_flat"
  bottom: "conv6_2_mbox_loc_flat"
  bottom: "conv7_2_mbox_loc_flat"
  bottom: "conv8_2_mbox_loc_flat"
  bottom: "conv9_2_mbox_loc_flat"
  top: "mbox_loc"
  concat_param {
    axis: 1
  }
}
layer {
  name: "mbox_conf"
  type: "Concat"
  bottom: "conv4_3_norm_mbox_conf_flat"
  bottom: "fc7_mbox_conf_flat"
  bottom: "conv6_2_mbox_conf_flat"
  bottom: "conv7_2_mbox_conf_flat"
  bottom: "conv8_2_mbox_conf_flat"
  bottom: "conv9_2_mbox_conf_flat"
  top: "mbox_conf"
  concat_param {
    axis: 1
  }
}
layer {
  name: "mbox_priorbox"
  type: "Concat"
  bottom: "conv4_3_norm_mbox_priorbox"
  bottom: "fc7_mbox_priorbox"
  bottom: "conv6_2_mbox_priorbox"
  bottom: "conv7_2_mbox_priorbox"
  bottom: "conv8_2_mbox_priorbox"
  bottom: "conv9_2_mbox_priorbox"
  top: "mbox_priorbox"
  concat_param {
    axis: 2
  }
}
layer {
  name: "mbox_loss"
  type: "MultiBoxLoss"
  bottom: "mbox_loc"
  bottom: "mbox_conf"
  bottom: "mbox_priorbox"
  bottom: "label"
  top: "mbox_loss"
  include {
    phase: TRAIN
  }
  propagate_down: true
  propagate_down: true
  propagate_down: false
  propagate_down: false
  loss_param {
    normalization: VALID
  }
  multibox_loss_param {
    loc_loss_type: SMOOTH_L1
    conf_loss_type: SOFTMAX
    loc_weight: 1
    num_classes: 21
    share_location: true
    match_type: PER_PREDICTION
    overlap_threshold: 0.5
    use_prior_for_matching: true
    background_label_id: 0
    use_difficult_gt: true
    neg_pos_ratio: 3
    neg_overlap: 0.5
    code_type: CENTER_SIZE
    ignore_cross_boundary_bbox: false
    mining_type: MAX_NEGATIVE
  }
}
I1110 22:36:27.464165 28591 layer_factory.hpp:77] Creating layer data
I1110 22:36:27.464282 28591 net.cpp:100] Creating Layer data
I1110 22:36:27.464293 28591 net.cpp:408] data -> data
I1110 22:36:27.464318 28591 net.cpp:408] data -> label
I1110 22:36:27.464661 28604 db_lmdb.cpp:35] Opened lmdb /media/lenovo/256G/ChenJ/VOCdevkit/VOC0712/lmdb/VOC0712_trainval_lmdb
I1110 22:36:27.473300 28591 annotated_data_layer.cpp:62] output data size: 16,3,300,300
I1110 22:36:27.489089 28591 net.cpp:150] Setting up data
I1110 22:36:27.489107 28591 net.cpp:157] Top shape: 16 3 300 300 (4320000)
I1110 22:36:27.489112 28591 net.cpp:157] Top shape: 1 1 5 8 (40)
I1110 22:36:27.489126 28591 net.cpp:165] Memory required for data: 17280160
I1110 22:36:27.489135 28591 layer_factory.hpp:77] Creating layer data_data_0_split
I1110 22:36:27.489145 28591 net.cpp:100] Creating Layer data_data_0_split
I1110 22:36:27.489150 28591 net.cpp:434] data_data_0_split <- data
I1110 22:36:27.489161 28591 net.cpp:408] data_data_0_split -> data_data_0_split_0
I1110 22:36:27.489171 28591 net.cpp:408] data_data_0_split -> data_data_0_split_1
I1110 22:36:27.489176 28591 net.cpp:408] data_data_0_split -> data_data_0_split_2
I1110 22:36:27.489181 28591 net.cpp:408] data_data_0_split -> data_data_0_split_3
I1110 22:36:27.489186 28591 net.cpp:408] data_data_0_split -> data_data_0_split_4
I1110 22:36:27.489190 28591 net.cpp:408] data_data_0_split -> data_data_0_split_5
I1110 22:36:27.489194 28591 net.cpp:408] data_data_0_split -> data_data_0_split_6
I1110 22:36:27.489255 28591 net.cpp:150] Setting up data_data_0_split
I1110 22:36:27.489262 28591 net.cpp:157] Top shape: 16 3 300 300 (4320000)
I1110 22:36:27.489265 28591 net.cpp:157] Top shape: 16 3 300 300 (4320000)
I1110 22:36:27.489267 28591 net.cpp:157] Top shape: 16 3 300 300 (4320000)
I1110 22:36:27.489271 28591 net.cpp:157] Top shape: 16 3 300 300 (4320000)
I1110 22:36:27.489274 28591 net.cpp:157] Top shape: 16 3 300 300 (4320000)
I1110 22:36:27.489276 28591 net.cpp:157] Top shape: 16 3 300 300 (4320000)
I1110 22:36:27.489279 28591 net.cpp:157] Top shape: 16 3 300 300 (4320000)
I1110 22:36:27.489281 28591 net.cpp:165] Memory required for data: 138240160
I1110 22:36:27.489284 28591 layer_factory.hpp:77] Creating layer conv1_1
I1110 22:36:27.489296 28591 net.cpp:100] Creating Layer conv1_1
I1110 22:36:27.489300 28591 net.cpp:434] conv1_1 <- data_data_0_split_0
I1110 22:36:27.489305 28591 net.cpp:408] conv1_1 -> conv1_1
I1110 22:36:27.643190 28591 net.cpp:150] Setting up conv1_1
I1110 22:36:27.643209 28591 net.cpp:157] Top shape: 16 64 300 300 (92160000)
I1110 22:36:27.643213 28591 net.cpp:165] Memory required for data: 506880160
I1110 22:36:27.643227 28591 layer_factory.hpp:77] Creating layer relu1_1
I1110 22:36:27.643234 28591 net.cpp:100] Creating Layer relu1_1
I1110 22:36:27.643237 28591 net.cpp:434] relu1_1 <- conv1_1
I1110 22:36:27.643242 28591 net.cpp:395] relu1_1 -> conv1_1 (in-place)
I1110 22:36:27.643362 28591 net.cpp:150] Setting up relu1_1
I1110 22:36:27.643369 28591 net.cpp:157] Top shape: 16 64 300 300 (92160000)
I1110 22:36:27.643371 28591 net.cpp:165] Memory required for data: 875520160
I1110 22:36:27.643374 28591 layer_factory.hpp:77] Creating layer conv1_2
I1110 22:36:27.643383 28591 net.cpp:100] Creating Layer conv1_2
I1110 22:36:27.643386 28591 net.cpp:434] conv1_2 <- conv1_1
I1110 22:36:27.643390 28591 net.cpp:408] conv1_2 -> conv1_2
I1110 22:36:27.644769 28591 net.cpp:150] Setting up conv1_2
I1110 22:36:27.644779 28591 net.cpp:157] Top shape: 16 64 300 300 (92160000)
I1110 22:36:27.644783 28591 net.cpp:165] Memory required for data: 1244160160
I1110 22:36:27.644788 28591 layer_factory.hpp:77] Creating layer relu1_2
I1110 22:36:27.644793 28591 net.cpp:100] Creating Layer relu1_2
I1110 22:36:27.644796 28591 net.cpp:434] relu1_2 <- conv1_2
I1110 22:36:27.644800 28591 net.cpp:395] relu1_2 -> conv1_2 (in-place)
I1110 22:36:27.644901 28591 net.cpp:150] Setting up relu1_2
I1110 22:36:27.644906 28591 net.cpp:157] Top shape: 16 64 300 300 (92160000)
I1110 22:36:27.644909 28591 net.cpp:165] Memory required for data: 1612800160
I1110 22:36:27.644912 28591 layer_factory.hpp:77] Creating layer pool1
I1110 22:36:27.644917 28591 net.cpp:100] Creating Layer pool1
I1110 22:36:27.644918 28591 net.cpp:434] pool1 <- conv1_2
I1110 22:36:27.644922 28591 net.cpp:408] pool1 -> pool1
I1110 22:36:27.644953 28591 net.cpp:150] Setting up pool1
I1110 22:36:27.644958 28591 net.cpp:157] Top shape: 16 64 150 150 (23040000)
I1110 22:36:27.644959 28591 net.cpp:165] Memory required for data: 1704960160
I1110 22:36:27.644963 28591 layer_factory.hpp:77] Creating layer conv2_1
I1110 22:36:27.644968 28591 net.cpp:100] Creating Layer conv2_1
I1110 22:36:27.644970 28591 net.cpp:434] conv2_1 <- pool1
I1110 22:36:27.644986 28591 net.cpp:408] conv2_1 -> conv2_1
I1110 22:36:27.645895 28591 net.cpp:150] Setting up conv2_1
I1110 22:36:27.645902 28591 net.cpp:157] Top shape: 16 128 150 150 (46080000)
I1110 22:36:27.645905 28591 net.cpp:165] Memory required for data: 1889280160
I1110 22:36:27.645911 28591 layer_factory.hpp:77] Creating layer relu2_1
I1110 22:36:27.645917 28591 net.cpp:100] Creating Layer relu2_1
I1110 22:36:27.645920 28591 net.cpp:434] relu2_1 <- conv2_1
I1110 22:36:27.645923 28591 net.cpp:395] relu2_1 -> conv2_1 (in-place)
I1110 22:36:27.646021 28591 net.cpp:150] Setting up relu2_1
I1110 22:36:27.646028 28591 net.cpp:157] Top shape: 16 128 150 150 (46080000)
I1110 22:36:27.646030 28591 net.cpp:165] Memory required for data: 2073600160
I1110 22:36:27.646033 28591 layer_factory.hpp:77] Creating layer conv2_2
I1110 22:36:27.646039 28591 net.cpp:100] Creating Layer conv2_2
I1110 22:36:27.646041 28591 net.cpp:434] conv2_2 <- conv2_1
I1110 22:36:27.646045 28591 net.cpp:408] conv2_2 -> conv2_2
I1110 22:36:27.647430 28591 net.cpp:150] Setting up conv2_2
I1110 22:36:27.647439 28591 net.cpp:157] Top shape: 16 128 150 150 (46080000)
I1110 22:36:27.647442 28591 net.cpp:165] Memory required for data: 2257920160
I1110 22:36:27.647447 28591 layer_factory.hpp:77] Creating layer relu2_2
I1110 22:36:27.647452 28591 net.cpp:100] Creating Layer relu2_2
I1110 22:36:27.647455 28591 net.cpp:434] relu2_2 <- conv2_2
I1110 22:36:27.647459 28591 net.cpp:395] relu2_2 -> conv2_2 (in-place)
I1110 22:36:27.647572 28591 net.cpp:150] Setting up relu2_2
I1110 22:36:27.647578 28591 net.cpp:157] Top shape: 16 128 150 150 (46080000)
I1110 22:36:27.647580 28591 net.cpp:165] Memory required for data: 2442240160
I1110 22:36:27.647583 28591 layer_factory.hpp:77] Creating layer pool2
I1110 22:36:27.647588 28591 net.cpp:100] Creating Layer pool2
I1110 22:36:27.647591 28591 net.cpp:434] pool2 <- conv2_2
I1110 22:36:27.647594 28591 net.cpp:408] pool2 -> pool2
I1110 22:36:27.647621 28591 net.cpp:150] Setting up pool2
I1110 22:36:27.647625 28591 net.cpp:157] Top shape: 16 128 75 75 (11520000)
I1110 22:36:27.647627 28591 net.cpp:165] Memory required for data: 2488320160
I1110 22:36:27.647630 28591 layer_factory.hpp:77] Creating layer conv3_1
I1110 22:36:27.647636 28591 net.cpp:100] Creating Layer conv3_1
I1110 22:36:27.647639 28591 net.cpp:434] conv3_1 <- pool2
I1110 22:36:27.647644 28591 net.cpp:408] conv3_1 -> conv3_1
I1110 22:36:27.650738 28591 net.cpp:150] Setting up conv3_1
I1110 22:36:27.650750 28591 net.cpp:157] Top shape: 16 256 75 75 (23040000)
I1110 22:36:27.650753 28591 net.cpp:165] Memory required for data: 2580480160
I1110 22:36:27.650761 28591 layer_factory.hpp:77] Creating layer relu3_1
I1110 22:36:27.650768 28591 net.cpp:100] Creating Layer relu3_1
I1110 22:36:27.650771 28591 net.cpp:434] relu3_1 <- conv3_1
I1110 22:36:27.650775 28591 net.cpp:395] relu3_1 -> conv3_1 (in-place)
I1110 22:36:27.651114 28591 net.cpp:150] Setting up relu3_1
I1110 22:36:27.651123 28591 net.cpp:157] Top shape: 16 256 75 75 (23040000)
I1110 22:36:27.651125 28591 net.cpp:165] Memory required for data: 2672640160
I1110 22:36:27.651129 28591 layer_factory.hpp:77] Creating layer conv3_2
I1110 22:36:27.651136 28591 net.cpp:100] Creating Layer conv3_2
I1110 22:36:27.651139 28591 net.cpp:434] conv3_2 <- conv3_1
I1110 22:36:27.651144 28591 net.cpp:408] conv3_2 -> conv3_2
I1110 22:36:27.654709 28591 net.cpp:150] Setting up conv3_2
I1110 22:36:27.654719 28591 net.cpp:157] Top shape: 16 256 75 75 (23040000)
I1110 22:36:27.654721 28591 net.cpp:165] Memory required for data: 2764800160
I1110 22:36:27.654726 28591 layer_factory.hpp:77] Creating layer relu3_2
I1110 22:36:27.654731 28591 net.cpp:100] Creating Layer relu3_2
I1110 22:36:27.654734 28591 net.cpp:434] relu3_2 <- conv3_2
I1110 22:36:27.654738 28591 net.cpp:395] relu3_2 -> conv3_2 (in-place)
I1110 22:36:27.655064 28591 net.cpp:150] Setting up relu3_2
I1110 22:36:27.655072 28591 net.cpp:157] Top shape: 16 256 75 75 (23040000)
I1110 22:36:27.655074 28591 net.cpp:165] Memory required for data: 2856960160
I1110 22:36:27.655087 28591 layer_factory.hpp:77] Creating layer conv3_3
I1110 22:36:27.655097 28591 net.cpp:100] Creating Layer conv3_3
I1110 22:36:27.655100 28591 net.cpp:434] conv3_3 <- conv3_2
I1110 22:36:27.655105 28591 net.cpp:408] conv3_3 -> conv3_3
I1110 22:36:27.658629 28591 net.cpp:150] Setting up conv3_3
I1110 22:36:27.658643 28591 net.cpp:157] Top shape: 16 256 75 75 (23040000)
I1110 22:36:27.658644 28591 net.cpp:165] Memory required for data: 2949120160
I1110 22:36:27.658649 28591 layer_factory.hpp:77] Creating layer relu3_3
I1110 22:36:27.658654 28591 net.cpp:100] Creating Layer relu3_3
I1110 22:36:27.658658 28591 net.cpp:434] relu3_3 <- conv3_3
I1110 22:36:27.658660 28591 net.cpp:395] relu3_3 -> conv3_3 (in-place)
I1110 22:36:27.658780 28591 net.cpp:150] Setting up relu3_3
I1110 22:36:27.658787 28591 net.cpp:157] Top shape: 16 256 75 75 (23040000)
I1110 22:36:27.658789 28591 net.cpp:165] Memory required for data: 3041280160
I1110 22:36:27.658792 28591 layer_factory.hpp:77] Creating layer pool3
I1110 22:36:27.658797 28591 net.cpp:100] Creating Layer pool3
I1110 22:36:27.658799 28591 net.cpp:434] pool3 <- conv3_3
I1110 22:36:27.658804 28591 net.cpp:408] pool3 -> pool3
I1110 22:36:27.658839 28591 net.cpp:150] Setting up pool3
I1110 22:36:27.658844 28591 net.cpp:157] Top shape: 16 256 38 38 (5914624)
I1110 22:36:27.658848 28591 net.cpp:165] Memory required for data: 3064938656
I1110 22:36:27.658849 28591 layer_factory.hpp:77] Creating layer conv4_1
I1110 22:36:27.658856 28591 net.cpp:100] Creating Layer conv4_1
I1110 22:36:27.658859 28591 net.cpp:434] conv4_1 <- pool3
I1110 22:36:27.658864 28591 net.cpp:408] conv4_1 -> conv4_1
I1110 22:36:27.665912 28591 net.cpp:150] Setting up conv4_1
I1110 22:36:27.665930 28591 net.cpp:157] Top shape: 16 512 38 38 (11829248)
I1110 22:36:27.665932 28591 net.cpp:165] Memory required for data: 3112255648
I1110 22:36:27.665938 28591 layer_factory.hpp:77] Creating layer relu4_1
I1110 22:36:27.665946 28591 net.cpp:100] Creating Layer relu4_1
I1110 22:36:27.665949 28591 net.cpp:434] relu4_1 <- conv4_1
I1110 22:36:27.665954 28591 net.cpp:395] relu4_1 -> conv4_1 (in-place)
I1110 22:36:27.666077 28591 net.cpp:150] Setting up relu4_1
I1110 22:36:27.666083 28591 net.cpp:157] Top shape: 16 512 38 38 (11829248)
I1110 22:36:27.666085 28591 net.cpp:165] Memory required for data: 3159572640
I1110 22:36:27.666088 28591 layer_factory.hpp:77] Creating layer conv4_2
I1110 22:36:27.666095 28591 net.cpp:100] Creating Layer conv4_2
I1110 22:36:27.666098 28591 net.cpp:434] conv4_2 <- conv4_1
I1110 22:36:27.666103 28591 net.cpp:408] conv4_2 -> conv4_2
I1110 22:36:27.676674 28591 net.cpp:150] Setting up conv4_2
I1110 22:36:27.676692 28591 net.cpp:157] Top shape: 16 512 38 38 (11829248)
I1110 22:36:27.676694 28591 net.cpp:165] Memory required for data: 3206889632
I1110 22:36:27.676705 28591 layer_factory.hpp:77] Creating layer relu4_2
I1110 22:36:27.676713 28591 net.cpp:100] Creating Layer relu4_2
I1110 22:36:27.676717 28591 net.cpp:434] relu4_2 <- conv4_2
I1110 22:36:27.676723 28591 net.cpp:395] relu4_2 -> conv4_2 (in-place)
I1110 22:36:27.676841 28591 net.cpp:150] Setting up relu4_2
I1110 22:36:27.676847 28591 net.cpp:157] Top shape: 16 512 38 38 (11829248)
I1110 22:36:27.676849 28591 net.cpp:165] Memory required for data: 3254206624
I1110 22:36:27.676852 28591 layer_factory.hpp:77] Creating layer conv4_3
I1110 22:36:27.676859 28591 net.cpp:100] Creating Layer conv4_3
I1110 22:36:27.676862 28591 net.cpp:434] conv4_3 <- conv4_2
I1110 22:36:27.676867 28591 net.cpp:408] conv4_3 -> conv4_3
I1110 22:36:27.687940 28591 net.cpp:150] Setting up conv4_3
I1110 22:36:27.687957 28591 net.cpp:157] Top shape: 16 512 38 38 (11829248)
I1110 22:36:27.687959 28591 net.cpp:165] Memory required for data: 3301523616
I1110 22:36:27.687965 28591 layer_factory.hpp:77] Creating layer relu4_3
I1110 22:36:27.687971 28591 net.cpp:100] Creating Layer relu4_3
I1110 22:36:27.687974 28591 net.cpp:434] relu4_3 <- conv4_3
I1110 22:36:27.687978 28591 net.cpp:395] relu4_3 -> conv4_3 (in-place)
I1110 22:36:27.688098 28591 net.cpp:150] Setting up relu4_3
I1110 22:36:27.688113 28591 net.cpp:157] Top shape: 16 512 38 38 (11829248)
I1110 22:36:27.688117 28591 net.cpp:165] Memory required for data: 3348840608
I1110 22:36:27.688118 28591 layer_factory.hpp:77] Creating layer conv4_3_relu4_3_0_split
I1110 22:36:27.688123 28591 net.cpp:100] Creating Layer conv4_3_relu4_3_0_split
I1110 22:36:27.688127 28591 net.cpp:434] conv4_3_relu4_3_0_split <- conv4_3
I1110 22:36:27.688132 28591 net.cpp:408] conv4_3_relu4_3_0_split -> conv4_3_relu4_3_0_split_0
I1110 22:36:27.688136 28591 net.cpp:408] conv4_3_relu4_3_0_split -> conv4_3_relu4_3_0_split_1
I1110 22:36:27.688163 28591 net.cpp:150] Setting up conv4_3_relu4_3_0_split
I1110 22:36:27.688169 28591 net.cpp:157] Top shape: 16 512 38 38 (11829248)
I1110 22:36:27.688171 28591 net.cpp:157] Top shape: 16 512 38 38 (11829248)
I1110 22:36:27.688174 28591 net.cpp:165] Memory required for data: 3443474592
I1110 22:36:27.688175 28591 layer_factory.hpp:77] Creating layer pool4
I1110 22:36:27.688180 28591 net.cpp:100] Creating Layer pool4
I1110 22:36:27.688182 28591 net.cpp:434] pool4 <- conv4_3_relu4_3_0_split_0
I1110 22:36:27.688187 28591 net.cpp:408] pool4 -> pool4
I1110 22:36:27.688211 28591 net.cpp:150] Setting up pool4
I1110 22:36:27.688215 28591 net.cpp:157] Top shape: 16 512 19 19 (2957312)
I1110 22:36:27.688218 28591 net.cpp:165] Memory required for data: 3455303840
I1110 22:36:27.688220 28591 layer_factory.hpp:77] Creating layer conv5_1
I1110 22:36:27.688227 28591 net.cpp:100] Creating Layer conv5_1
I1110 22:36:27.688230 28591 net.cpp:434] conv5_1 <- pool4
I1110 22:36:27.688235 28591 net.cpp:408] conv5_1 -> conv5_1
I1110 22:36:27.699986 28591 net.cpp:150] Setting up conv5_1
I1110 22:36:27.700002 28591 net.cpp:157] Top shape: 16 512 19 19 (2957312)
I1110 22:36:27.700006 28591 net.cpp:165] Memory required for data: 3467133088
I1110 22:36:27.700012 28591 layer_factory.hpp:77] Creating layer relu5_1
I1110 22:36:27.700019 28591 net.cpp:100] Creating Layer relu5_1
I1110 22:36:27.700023 28591 net.cpp:434] relu5_1 <- conv5_1
I1110 22:36:27.700029 28591 net.cpp:395] relu5_1 -> conv5_1 (in-place)
I1110 22:36:27.700376 28591 net.cpp:150] Setting up relu5_1
I1110 22:36:27.700384 28591 net.cpp:157] Top shape: 16 512 19 19 (2957312)
I1110 22:36:27.700387 28591 net.cpp:165] Memory required for data: 3478962336
I1110 22:36:27.700390 28591 layer_factory.hpp:77] Creating layer conv5_2
I1110 22:36:27.700397 28591 net.cpp:100] Creating Layer conv5_2
I1110 22:36:27.700402 28591 net.cpp:434] conv5_2 <- conv5_1
I1110 22:36:27.700407 28591 net.cpp:408] conv5_2 -> conv5_2
I1110 22:36:27.710713 28591 net.cpp:150] Setting up conv5_2
I1110 22:36:27.710732 28591 net.cpp:157] Top shape: 16 512 19 19 (2957312)
I1110 22:36:27.710736 28591 net.cpp:165] Memory required for data: 3490791584
I1110 22:36:27.710741 28591 layer_factory.hpp:77] Creating layer relu5_2
I1110 22:36:27.710750 28591 net.cpp:100] Creating Layer relu5_2
I1110 22:36:27.710754 28591 net.cpp:434] relu5_2 <- conv5_2
I1110 22:36:27.710758 28591 net.cpp:395] relu5_2 -> conv5_2 (in-place)
I1110 22:36:27.711190 28591 net.cpp:150] Setting up relu5_2
I1110 22:36:27.711199 28591 net.cpp:157] Top shape: 16 512 19 19 (2957312)
I1110 22:36:27.711203 28591 net.cpp:165] Memory required for data: 3502620832
I1110 22:36:27.711205 28591 layer_factory.hpp:77] Creating layer conv5_3
I1110 22:36:27.711215 28591 net.cpp:100] Creating Layer conv5_3
I1110 22:36:27.711218 28591 net.cpp:434] conv5_3 <- conv5_2
I1110 22:36:27.711223 28591 net.cpp:408] conv5_3 -> conv5_3
I1110 22:36:27.721827 28591 net.cpp:150] Setting up conv5_3
I1110 22:36:27.721845 28591 net.cpp:157] Top shape: 16 512 19 19 (2957312)
I1110 22:36:27.721848 28591 net.cpp:165] Memory required for data: 3514450080
I1110 22:36:27.721855 28591 layer_factory.hpp:77] Creating layer relu5_3
I1110 22:36:27.721868 28591 net.cpp:100] Creating Layer relu5_3
I1110 22:36:27.721871 28591 net.cpp:434] relu5_3 <- conv5_3
I1110 22:36:27.721877 28591 net.cpp:395] relu5_3 -> conv5_3 (in-place)
I1110 22:36:27.721994 28591 net.cpp:150] Setting up relu5_3
I1110 22:36:27.722010 28591 net.cpp:157] Top shape: 16 512 19 19 (2957312)
I1110 22:36:27.722013 28591 net.cpp:165] Memory required for data: 3526279328
I1110 22:36:27.722016 28591 layer_factory.hpp:77] Creating layer pool5
I1110 22:36:27.722020 28591 net.cpp:100] Creating Layer pool5
I1110 22:36:27.722023 28591 net.cpp:434] pool5 <- conv5_3
I1110 22:36:27.722028 28591 net.cpp:408] pool5 -> pool5
I1110 22:36:27.722059 28591 net.cpp:150] Setting up pool5
I1110 22:36:27.722064 28591 net.cpp:157] Top shape: 16 512 19 19 (2957312)
I1110 22:36:27.722066 28591 net.cpp:165] Memory required for data: 3538108576
I1110 22:36:27.722069 28591 layer_factory.hpp:77] Creating layer fc6
I1110 22:36:27.722079 28591 net.cpp:100] Creating Layer fc6
I1110 22:36:27.722081 28591 net.cpp:434] fc6 <- pool5
I1110 22:36:27.722086 28591 net.cpp:408] fc6 -> fc6
I1110 22:36:27.741691 28591 net.cpp:150] Setting up fc6
I1110 22:36:27.741709 28591 net.cpp:157] Top shape: 16 1024 19 19 (5914624)
I1110 22:36:27.741711 28591 net.cpp:165] Memory required for data: 3561767072
I1110 22:36:27.741717 28591 layer_factory.hpp:77] Creating layer relu6
I1110 22:36:27.741725 28591 net.cpp:100] Creating Layer relu6
I1110 22:36:27.741729 28591 net.cpp:434] relu6 <- fc6
I1110 22:36:27.741734 28591 net.cpp:395] relu6 -> fc6 (in-place)
I1110 22:36:27.741894 28591 net.cpp:150] Setting up relu6
I1110 22:36:27.741901 28591 net.cpp:157] Top shape: 16 1024 19 19 (5914624)
I1110 22:36:27.741904 28591 net.cpp:165] Memory required for data: 3585425568
I1110 22:36:27.741906 28591 layer_factory.hpp:77] Creating layer fc7
I1110 22:36:27.741914 28591 net.cpp:100] Creating Layer fc7
I1110 22:36:27.741917 28591 net.cpp:434] fc7 <- fc6
I1110 22:36:27.741921 28591 net.cpp:408] fc7 -> fc7
I1110 22:36:27.747287 28591 net.cpp:150] Setting up fc7
I1110 22:36:27.747303 28591 net.cpp:157] Top shape: 16 1024 19 19 (5914624)
I1110 22:36:27.747304 28591 net.cpp:165] Memory required for data: 3609084064
I1110 22:36:27.747311 28591 layer_factory.hpp:77] Creating layer relu7
I1110 22:36:27.747316 28591 net.cpp:100] Creating Layer relu7
I1110 22:36:27.747319 28591 net.cpp:434] relu7 <- fc7
I1110 22:36:27.747325 28591 net.cpp:395] relu7 -> fc7 (in-place)
I1110 22:36:27.747442 28591 net.cpp:150] Setting up relu7
I1110 22:36:27.747448 28591 net.cpp:157] Top shape: 16 1024 19 19 (5914624)
I1110 22:36:27.747450 28591 net.cpp:165] Memory required for data: 3632742560
I1110 22:36:27.747452 28591 layer_factory.hpp:77] Creating layer fc7_relu7_0_split
I1110 22:36:27.747457 28591 net.cpp:100] Creating Layer fc7_relu7_0_split
I1110 22:36:27.747459 28591 net.cpp:434] fc7_relu7_0_split <- fc7
I1110 22:36:27.747464 28591 net.cpp:408] fc7_relu7_0_split -> fc7_relu7_0_split_0
I1110 22:36:27.747469 28591 net.cpp:408] fc7_relu7_0_split -> fc7_relu7_0_split_1
I1110 22:36:27.747479 28591 net.cpp:408] fc7_relu7_0_split -> fc7_relu7_0_split_2
I1110 22:36:27.747485 28591 net.cpp:408] fc7_relu7_0_split -> fc7_relu7_0_split_3
I1110 22:36:27.747530 28591 net.cpp:150] Setting up fc7_relu7_0_split
I1110 22:36:27.747534 28591 net.cpp:157] Top shape: 16 1024 19 19 (5914624)
I1110 22:36:27.747539 28591 net.cpp:157] Top shape: 16 1024 19 19 (5914624)
I1110 22:36:27.747541 28591 net.cpp:157] Top shape: 16 1024 19 19 (5914624)
I1110 22:36:27.747543 28591 net.cpp:157] Top shape: 16 1024 19 19 (5914624)
I1110 22:36:27.747545 28591 net.cpp:165] Memory required for data: 3727376544
I1110 22:36:27.747548 28591 layer_factory.hpp:77] Creating layer conv6_1
I1110 22:36:27.747556 28591 net.cpp:100] Creating Layer conv6_1
I1110 22:36:27.747558 28591 net.cpp:434] conv6_1 <- fc7_relu7_0_split_0
I1110 22:36:27.747563 28591 net.cpp:408] conv6_1 -> conv6_1
I1110 22:36:27.750038 28591 net.cpp:150] Setting up conv6_1
I1110 22:36:27.750047 28591 net.cpp:157] Top shape: 16 256 19 19 (1478656)
I1110 22:36:27.750051 28591 net.cpp:165] Memory required for data: 3733291168
I1110 22:36:27.750054 28591 layer_factory.hpp:77] Creating layer conv6_1_relu
I1110 22:36:27.750061 28591 net.cpp:100] Creating Layer conv6_1_relu
I1110 22:36:27.750063 28591 net.cpp:434] conv6_1_relu <- conv6_1
I1110 22:36:27.750077 28591 net.cpp:395] conv6_1_relu -> conv6_1 (in-place)
I1110 22:36:27.750442 28591 net.cpp:150] Setting up conv6_1_relu
I1110 22:36:27.750450 28591 net.cpp:157] Top shape: 16 256 19 19 (1478656)
I1110 22:36:27.750452 28591 net.cpp:165] Memory required for data: 3739205792
I1110 22:36:27.750455 28591 layer_factory.hpp:77] Creating layer conv6_2
I1110 22:36:27.750463 28591 net.cpp:100] Creating Layer conv6_2
I1110 22:36:27.750466 28591 net.cpp:434] conv6_2 <- conv6_1
I1110 22:36:27.750470 28591 net.cpp:408] conv6_2 -> conv6_2
I1110 22:36:27.755965 28591 net.cpp:150] Setting up conv6_2
I1110 22:36:27.755981 28591 net.cpp:157] Top shape: 16 512 10 10 (819200)
I1110 22:36:27.755985 28591 net.cpp:165] Memory required for data: 3742482592
I1110 22:36:27.755995 28591 layer_factory.hpp:77] Creating layer conv6_2_relu
I1110 22:36:27.756001 28591 net.cpp:100] Creating Layer conv6_2_relu
I1110 22:36:27.756005 28591 net.cpp:434] conv6_2_relu <- conv6_2
I1110 22:36:27.756009 28591 net.cpp:395] conv6_2_relu -> conv6_2 (in-place)
I1110 22:36:27.756413 28591 net.cpp:150] Setting up conv6_2_relu
I1110 22:36:27.756422 28591 net.cpp:157] Top shape: 16 512 10 10 (819200)
I1110 22:36:27.756424 28591 net.cpp:165] Memory required for data: 3745759392
I1110 22:36:27.756428 28591 layer_factory.hpp:77] Creating layer conv6_2_conv6_2_relu_0_split
I1110 22:36:27.756431 28591 net.cpp:100] Creating Layer conv6_2_conv6_2_relu_0_split
I1110 22:36:27.756434 28591 net.cpp:434] conv6_2_conv6_2_relu_0_split <- conv6_2
I1110 22:36:27.756439 28591 net.cpp:408] conv6_2_conv6_2_relu_0_split -> conv6_2_conv6_2_relu_0_split_0
I1110 22:36:27.756445 28591 net.cpp:408] conv6_2_conv6_2_relu_0_split -> conv6_2_conv6_2_relu_0_split_1
I1110 22:36:27.756450 28591 net.cpp:408] conv6_2_conv6_2_relu_0_split -> conv6_2_conv6_2_relu_0_split_2
I1110 22:36:27.756455 28591 net.cpp:408] conv6_2_conv6_2_relu_0_split -> conv6_2_conv6_2_relu_0_split_3
I1110 22:36:27.756501 28591 net.cpp:150] Setting up conv6_2_conv6_2_relu_0_split
I1110 22:36:27.756506 28591 net.cpp:157] Top shape: 16 512 10 10 (819200)
I1110 22:36:27.756510 28591 net.cpp:157] Top shape: 16 512 10 10 (819200)
I1110 22:36:27.756512 28591 net.cpp:157] Top shape: 16 512 10 10 (819200)
I1110 22:36:27.756515 28591 net.cpp:157] Top shape: 16 512 10 10 (819200)
I1110 22:36:27.756517 28591 net.cpp:165] Memory required for data: 3758866592
I1110 22:36:27.756520 28591 layer_factory.hpp:77] Creating layer conv7_1
I1110 22:36:27.756526 28591 net.cpp:100] Creating Layer conv7_1
I1110 22:36:27.756530 28591 net.cpp:434] conv7_1 <- conv6_2_conv6_2_relu_0_split_0
I1110 22:36:27.756534 28591 net.cpp:408] conv7_1 -> conv7_1
I1110 22:36:27.757546 28591 net.cpp:150] Setting up conv7_1
I1110 22:36:27.757555 28591 net.cpp:157] Top shape: 16 128 10 10 (204800)
I1110 22:36:27.757557 28591 net.cpp:165] Memory required for data: 3759685792
I1110 22:36:27.757562 28591 layer_factory.hpp:77] Creating layer conv7_1_relu
I1110 22:36:27.757566 28591 net.cpp:100] Creating Layer conv7_1_relu
I1110 22:36:27.757570 28591 net.cpp:434] conv7_1_relu <- conv7_1
I1110 22:36:27.757573 28591 net.cpp:395] conv7_1_relu -> conv7_1 (in-place)
I1110 22:36:27.757688 28591 net.cpp:150] Setting up conv7_1_relu
I1110 22:36:27.757694 28591 net.cpp:157] Top shape: 16 128 10 10 (204800)
I1110 22:36:27.757695 28591 net.cpp:165] Memory required for data: 3760504992
I1110 22:36:27.757697 28591 layer_factory.hpp:77] Creating layer conv7_2
I1110 22:36:27.757704 28591 net.cpp:100] Creating Layer conv7_2
I1110 22:36:27.757707 28591 net.cpp:434] conv7_2 <- conv7_1
I1110 22:36:27.757711 28591 net.cpp:408] conv7_2 -> conv7_2
I1110 22:36:27.760072 28591 net.cpp:150] Setting up conv7_2
I1110 22:36:27.760082 28591 net.cpp:157] Top shape: 16 256 5 5 (102400)
I1110 22:36:27.760084 28591 net.cpp:165] Memory required for data: 3760914592
I1110 22:36:27.760088 28591 layer_factory.hpp:77] Creating layer conv7_2_relu
I1110 22:36:27.760094 28591 net.cpp:100] Creating Layer conv7_2_relu
I1110 22:36:27.760097 28591 net.cpp:434] conv7_2_relu <- conv7_2
I1110 22:36:27.760113 28591 net.cpp:395] conv7_2_relu -> conv7_2 (in-place)
I1110 22:36:27.760231 28591 net.cpp:150] Setting up conv7_2_relu
I1110 22:36:27.760236 28591 net.cpp:157] Top shape: 16 256 5 5 (102400)
I1110 22:36:27.760239 28591 net.cpp:165] Memory required for data: 3761324192
I1110 22:36:27.760241 28591 layer_factory.hpp:77] Creating layer conv7_2_conv7_2_relu_0_split
I1110 22:36:27.760246 28591 net.cpp:100] Creating Layer conv7_2_conv7_2_relu_0_split
I1110 22:36:27.760249 28591 net.cpp:434] conv7_2_conv7_2_relu_0_split <- conv7_2
I1110 22:36:27.760254 28591 net.cpp:408] conv7_2_conv7_2_relu_0_split -> conv7_2_conv7_2_relu_0_split_0
I1110 22:36:27.760259 28591 net.cpp:408] conv7_2_conv7_2_relu_0_split -> conv7_2_conv7_2_relu_0_split_1
I1110 22:36:27.760264 28591 net.cpp:408] conv7_2_conv7_2_relu_0_split -> conv7_2_conv7_2_relu_0_split_2
I1110 22:36:27.760268 28591 net.cpp:408] conv7_2_conv7_2_relu_0_split -> conv7_2_conv7_2_relu_0_split_3
I1110 22:36:27.760313 28591 net.cpp:150] Setting up conv7_2_conv7_2_relu_0_split
I1110 22:36:27.760319 28591 net.cpp:157] Top shape: 16 256 5 5 (102400)
I1110 22:36:27.760321 28591 net.cpp:157] Top shape: 16 256 5 5 (102400)
I1110 22:36:27.760324 28591 net.cpp:157] Top shape: 16 256 5 5 (102400)
I1110 22:36:27.760327 28591 net.cpp:157] Top shape: 16 256 5 5 (102400)
I1110 22:36:27.760329 28591 net.cpp:165] Memory required for data: 3762962592
I1110 22:36:27.760331 28591 layer_factory.hpp:77] Creating layer conv8_1
I1110 22:36:27.760337 28591 net.cpp:100] Creating Layer conv8_1
I1110 22:36:27.760341 28591 net.cpp:434] conv8_1 <- conv7_2_conv7_2_relu_0_split_0
I1110 22:36:27.760346 28591 net.cpp:408] conv8_1 -> conv8_1
I1110 22:36:27.761227 28591 net.cpp:150] Setting up conv8_1
I1110 22:36:27.761235 28591 net.cpp:157] Top shape: 16 128 5 5 (51200)
I1110 22:36:27.761238 28591 net.cpp:165] Memory required for data: 3763167392
I1110 22:36:27.761243 28591 layer_factory.hpp:77] Creating layer conv8_1_relu
I1110 22:36:27.761248 28591 net.cpp:100] Creating Layer conv8_1_relu
I1110 22:36:27.761250 28591 net.cpp:434] conv8_1_relu <- conv8_1
I1110 22:36:27.761255 28591 net.cpp:395] conv8_1_relu -> conv8_1 (in-place)
I1110 22:36:27.761368 28591 net.cpp:150] Setting up conv8_1_relu
I1110 22:36:27.761374 28591 net.cpp:157] Top shape: 16 128 5 5 (51200)
I1110 22:36:27.761376 28591 net.cpp:165] Memory required for data: 3763372192
I1110 22:36:27.761379 28591 layer_factory.hpp:77] Creating layer conv8_2
I1110 22:36:27.761386 28591 net.cpp:100] Creating Layer conv8_2
I1110 22:36:27.761389 28591 net.cpp:434] conv8_2 <- conv8_1
I1110 22:36:27.761392 28591 net.cpp:408] conv8_2 -> conv8_2
I1110 22:36:27.763751 28591 net.cpp:150] Setting up conv8_2
I1110 22:36:27.763761 28591 net.cpp:157] Top shape: 16 256 3 3 (36864)
I1110 22:36:27.763763 28591 net.cpp:165] Memory required for data: 3763519648
I1110 22:36:27.763767 28591 layer_factory.hpp:77] Creating layer conv8_2_relu
I1110 22:36:27.763772 28591 net.cpp:100] Creating Layer conv8_2_relu
I1110 22:36:27.763774 28591 net.cpp:434] conv8_2_relu <- conv8_2
I1110 22:36:27.763778 28591 net.cpp:395] conv8_2_relu -> conv8_2 (in-place)
I1110 22:36:27.763895 28591 net.cpp:150] Setting up conv8_2_relu
I1110 22:36:27.763900 28591 net.cpp:157] Top shape: 16 256 3 3 (36864)
I1110 22:36:27.763903 28591 net.cpp:165] Memory required for data: 3763667104
I1110 22:36:27.763906 28591 layer_factory.hpp:77] Creating layer conv8_2_conv8_2_relu_0_split
I1110 22:36:27.763911 28591 net.cpp:100] Creating Layer conv8_2_conv8_2_relu_0_split
I1110 22:36:27.763913 28591 net.cpp:434] conv8_2_conv8_2_relu_0_split <- conv8_2
I1110 22:36:27.763917 28591 net.cpp:408] conv8_2_conv8_2_relu_0_split -> conv8_2_conv8_2_relu_0_split_0
I1110 22:36:27.763923 28591 net.cpp:408] conv8_2_conv8_2_relu_0_split -> conv8_2_conv8_2_relu_0_split_1
I1110 22:36:27.763927 28591 net.cpp:408] conv8_2_conv8_2_relu_0_split -> conv8_2_conv8_2_relu_0_split_2
I1110 22:36:27.763932 28591 net.cpp:408] conv8_2_conv8_2_relu_0_split -> conv8_2_conv8_2_relu_0_split_3
I1110 22:36:27.763980 28591 net.cpp:150] Setting up conv8_2_conv8_2_relu_0_split
I1110 22:36:27.763996 28591 net.cpp:157] Top shape: 16 256 3 3 (36864)
I1110 22:36:27.763999 28591 net.cpp:157] Top shape: 16 256 3 3 (36864)
I1110 22:36:27.764003 28591 net.cpp:157] Top shape: 16 256 3 3 (36864)
I1110 22:36:27.764005 28591 net.cpp:157] Top shape: 16 256 3 3 (36864)
I1110 22:36:27.764008 28591 net.cpp:165] Memory required for data: 3764256928
I1110 22:36:27.764009 28591 layer_factory.hpp:77] Creating layer conv9_1
I1110 22:36:27.764016 28591 net.cpp:100] Creating Layer conv9_1
I1110 22:36:27.764019 28591 net.cpp:434] conv9_1 <- conv8_2_conv8_2_relu_0_split_0
I1110 22:36:27.764025 28591 net.cpp:408] conv9_1 -> conv9_1
I1110 22:36:27.764924 28591 net.cpp:150] Setting up conv9_1
I1110 22:36:27.764933 28591 net.cpp:157] Top shape: 16 128 3 3 (18432)
I1110 22:36:27.764936 28591 net.cpp:165] Memory required for data: 3764330656
I1110 22:36:27.764941 28591 layer_factory.hpp:77] Creating layer conv9_1_relu
I1110 22:36:27.764945 28591 net.cpp:100] Creating Layer conv9_1_relu
I1110 22:36:27.764947 28591 net.cpp:434] conv9_1_relu <- conv9_1
I1110 22:36:27.764952 28591 net.cpp:395] conv9_1_relu -> conv9_1 (in-place)
I1110 22:36:27.765306 28591 net.cpp:150] Setting up conv9_1_relu
I1110 22:36:27.765314 28591 net.cpp:157] Top shape: 16 128 3 3 (18432)
I1110 22:36:27.765317 28591 net.cpp:165] Memory required for data: 3764404384
I1110 22:36:27.765321 28591 layer_factory.hpp:77] Creating layer conv9_2
I1110 22:36:27.765327 28591 net.cpp:100] Creating Layer conv9_2
I1110 22:36:27.765331 28591 net.cpp:434] conv9_2 <- conv9_1
I1110 22:36:27.765336 28591 net.cpp:408] conv9_2 -> conv9_2
I1110 22:36:27.767448 28591 net.cpp:150] Setting up conv9_2
I1110 22:36:27.767457 28591 net.cpp:157] Top shape: 16 256 1 1 (4096)
I1110 22:36:27.767459 28591 net.cpp:165] Memory required for data: 3764420768
I1110 22:36:27.767464 28591 layer_factory.hpp:77] Creating layer conv9_2_relu
I1110 22:36:27.767468 28591 net.cpp:100] Creating Layer conv9_2_relu
I1110 22:36:27.767472 28591 net.cpp:434] conv9_2_relu <- conv9_2
I1110 22:36:27.767475 28591 net.cpp:395] conv9_2_relu -> conv9_2 (in-place)
I1110 22:36:27.767843 28591 net.cpp:150] Setting up conv9_2_relu
I1110 22:36:27.767850 28591 net.cpp:157] Top shape: 16 256 1 1 (4096)
I1110 22:36:27.767853 28591 net.cpp:165] Memory required for data: 3764437152
I1110 22:36:27.767856 28591 layer_factory.hpp:77] Creating layer conv9_2_conv9_2_relu_0_split
I1110 22:36:27.767860 28591 net.cpp:100] Creating Layer conv9_2_conv9_2_relu_0_split
I1110 22:36:27.767863 28591 net.cpp:434] conv9_2_conv9_2_relu_0_split <- conv9_2
I1110 22:36:27.767868 28591 net.cpp:408] conv9_2_conv9_2_relu_0_split -> conv9_2_conv9_2_relu_0_split_0
I1110 22:36:27.767874 28591 net.cpp:408] conv9_2_conv9_2_relu_0_split -> conv9_2_conv9_2_relu_0_split_1
I1110 22:36:27.767879 28591 net.cpp:408] conv9_2_conv9_2_relu_0_split -> conv9_2_conv9_2_relu_0_split_2
I1110 22:36:27.767918 28591 net.cpp:150] Setting up conv9_2_conv9_2_relu_0_split
I1110 22:36:27.767923 28591 net.cpp:157] Top shape: 16 256 1 1 (4096)
I1110 22:36:27.767926 28591 net.cpp:157] Top shape: 16 256 1 1 (4096)
I1110 22:36:27.767928 28591 net.cpp:157] Top shape: 16 256 1 1 (4096)
I1110 22:36:27.767930 28591 net.cpp:165] Memory required for data: 3764486304
I1110 22:36:27.767932 28591 layer_factory.hpp:77] Creating layer conv4_3_norm
I1110 22:36:27.767937 28591 net.cpp:100] Creating Layer conv4_3_norm
I1110 22:36:27.767940 28591 net.cpp:434] conv4_3_norm <- conv4_3_relu4_3_0_split_1
I1110 22:36:27.767944 28591 net.cpp:408] conv4_3_norm -> conv4_3_norm
I1110 22:36:27.768056 28591 net.cpp:150] Setting up conv4_3_norm
I1110 22:36:27.768061 28591 net.cpp:157] Top shape: 16 512 38 38 (11829248)
I1110 22:36:27.768064 28591 net.cpp:165] Memory required for data: 3811803296
I1110 22:36:27.768066 28591 layer_factory.hpp:77] Creating layer conv4_3_norm_conv4_3_norm_0_split
I1110 22:36:27.768072 28591 net.cpp:100] Creating Layer conv4_3_norm_conv4_3_norm_0_split
I1110 22:36:27.768074 28591 net.cpp:434] conv4_3_norm_conv4_3_norm_0_split <- conv4_3_norm
I1110 22:36:27.768087 28591 net.cpp:408] conv4_3_norm_conv4_3_norm_0_split -> conv4_3_norm_conv4_3_norm_0_split_0
I1110 22:36:27.768092 28591 net.cpp:408] conv4_3_norm_conv4_3_norm_0_split -> conv4_3_norm_conv4_3_norm_0_split_1
I1110 22:36:27.768097 28591 net.cpp:408] conv4_3_norm_conv4_3_norm_0_split -> conv4_3_norm_conv4_3_norm_0_split_2
I1110 22:36:27.768129 28591 net.cpp:150] Setting up conv4_3_norm_conv4_3_norm_0_split
I1110 22:36:27.768133 28591 net.cpp:157] Top shape: 16 512 38 38 (11829248)
I1110 22:36:27.768136 28591 net.cpp:157] Top shape: 16 512 38 38 (11829248)
I1110 22:36:27.768139 28591 net.cpp:157] Top shape: 16 512 38 38 (11829248)
I1110 22:36:27.768141 28591 net.cpp:165] Memory required for data: 3953754272
I1110 22:36:27.768143 28591 layer_factory.hpp:77] Creating layer conv4_3_norm_mbox_loc
I1110 22:36:27.768151 28591 net.cpp:100] Creating Layer conv4_3_norm_mbox_loc
I1110 22:36:27.768153 28591 net.cpp:434] conv4_3_norm_mbox_loc <- conv4_3_norm_conv4_3_norm_0_split_0
I1110 22:36:27.768157 28591 net.cpp:408] conv4_3_norm_mbox_loc -> conv4_3_norm_mbox_loc
I1110 22:36:27.769418 28591 net.cpp:150] Setting up conv4_3_norm_mbox_loc
I1110 22:36:27.769426 28591 net.cpp:157] Top shape: 16 16 38 38 (369664)
I1110 22:36:27.769429 28591 net.cpp:165] Memory required for data: 3955232928
I1110 22:36:27.769434 28591 layer_factory.hpp:77] Creating layer conv4_3_norm_mbox_loc_perm
I1110 22:36:27.769440 28591 net.cpp:100] Creating Layer conv4_3_norm_mbox_loc_perm
I1110 22:36:27.769443 28591 net.cpp:434] conv4_3_norm_mbox_loc_perm <- conv4_3_norm_mbox_loc
I1110 22:36:27.769448 28591 net.cpp:408] conv4_3_norm_mbox_loc_perm -> conv4_3_norm_mbox_loc_perm
I1110 22:36:27.769526 28591 net.cpp:150] Setting up conv4_3_norm_mbox_loc_perm
I1110 22:36:27.769531 28591 net.cpp:157] Top shape: 16 38 38 16 (369664)
I1110 22:36:27.769532 28591 net.cpp:165] Memory required for data: 3956711584
I1110 22:36:27.769536 28591 layer_factory.hpp:77] Creating layer conv4_3_norm_mbox_loc_flat
I1110 22:36:27.769538 28591 net.cpp:100] Creating Layer conv4_3_norm_mbox_loc_flat
I1110 22:36:27.769541 28591 net.cpp:434] conv4_3_norm_mbox_loc_flat <- conv4_3_norm_mbox_loc_perm
I1110 22:36:27.769546 28591 net.cpp:408] conv4_3_norm_mbox_loc_flat -> conv4_3_norm_mbox_loc_flat
I1110 22:36:27.769573 28591 net.cpp:150] Setting up conv4_3_norm_mbox_loc_flat
I1110 22:36:27.769578 28591 net.cpp:157] Top shape: 16 23104 (369664)
I1110 22:36:27.769580 28591 net.cpp:165] Memory required for data: 3958190240
I1110 22:36:27.769582 28591 layer_factory.hpp:77] Creating layer conv4_3_norm_mbox_conf
I1110 22:36:27.769595 28591 net.cpp:100] Creating Layer conv4_3_norm_mbox_conf
I1110 22:36:27.769598 28591 net.cpp:434] conv4_3_norm_mbox_conf <- conv4_3_norm_conv4_3_norm_0_split_1
I1110 22:36:27.769603 28591 net.cpp:408] conv4_3_norm_mbox_conf -> conv4_3_norm_mbox_conf
I1110 22:36:27.772325 28591 net.cpp:150] Setting up conv4_3_norm_mbox_conf
I1110 22:36:27.772336 28591 net.cpp:157] Top shape: 16 84 38 38 (1940736)
I1110 22:36:27.772339 28591 net.cpp:165] Memory required for data: 3965953184
I1110 22:36:27.772344 28591 layer_factory.hpp:77] Creating layer conv4_3_norm_mbox_conf_perm
I1110 22:36:27.772349 28591 net.cpp:100] Creating Layer conv4_3_norm_mbox_conf_perm
I1110 22:36:27.772352 28591 net.cpp:434] conv4_3_norm_mbox_conf_perm <- conv4_3_norm_mbox_conf
I1110 22:36:27.772358 28591 net.cpp:408] conv4_3_norm_mbox_conf_perm -> conv4_3_norm_mbox_conf_perm
I1110 22:36:27.772433 28591 net.cpp:150] Setting up conv4_3_norm_mbox_conf_perm
I1110 22:36:27.772438 28591 net.cpp:157] Top shape: 16 38 38 84 (1940736)
I1110 22:36:27.772440 28591 net.cpp:165] Memory required for data: 3973716128
I1110 22:36:27.772442 28591 layer_factory.hpp:77] Creating layer conv4_3_norm_mbox_conf_flat
I1110 22:36:27.772447 28591 net.cpp:100] Creating Layer conv4_3_norm_mbox_conf_flat
I1110 22:36:27.772449 28591 net.cpp:434] conv4_3_norm_mbox_conf_flat <- conv4_3_norm_mbox_conf_perm
I1110 22:36:27.772454 28591 net.cpp:408] conv4_3_norm_mbox_conf_flat -> conv4_3_norm_mbox_conf_flat
I1110 22:36:27.772480 28591 net.cpp:150] Setting up conv4_3_norm_mbox_conf_flat
I1110 22:36:27.772485 28591 net.cpp:157] Top shape: 16 121296 (1940736)
I1110 22:36:27.772486 28591 net.cpp:165] Memory required for data: 3981479072
I1110 22:36:27.772490 28591 layer_factory.hpp:77] Creating layer conv4_3_norm_mbox_priorbox
I1110 22:36:27.772495 28591 net.cpp:100] Creating Layer conv4_3_norm_mbox_priorbox
I1110 22:36:27.772498 28591 net.cpp:434] conv4_3_norm_mbox_priorbox <- conv4_3_norm_conv4_3_norm_0_split_2
I1110 22:36:27.772501 28591 net.cpp:434] conv4_3_norm_mbox_priorbox <- data_data_0_split_1
I1110 22:36:27.772507 28591 net.cpp:408] conv4_3_norm_mbox_priorbox -> conv4_3_norm_mbox_priorbox
I1110 22:36:27.772527 28591 net.cpp:150] Setting up conv4_3_norm_mbox_priorbox
I1110 22:36:27.772531 28591 net.cpp:157] Top shape: 1 2 23104 (46208)
I1110 22:36:27.772534 28591 net.cpp:165] Memory required for data: 3981663904
I1110 22:36:27.772536 28591 layer_factory.hpp:77] Creating layer fc7_mbox_loc
I1110 22:36:27.772544 28591 net.cpp:100] Creating Layer fc7_mbox_loc
I1110 22:36:27.772548 28591 net.cpp:434] fc7_mbox_loc <- fc7_relu7_0_split_1
I1110 22:36:27.772552 28591 net.cpp:408] fc7_mbox_loc -> fc7_mbox_loc
I1110 22:36:27.774374 28591 net.cpp:150] Setting up fc7_mbox_loc
I1110 22:36:27.774382 28591 net.cpp:157] Top shape: 16 24 19 19 (138624)
I1110 22:36:27.774385 28591 net.cpp:165] Memory required for data: 3982218400
I1110 22:36:27.774389 28591 layer_factory.hpp:77] Creating layer fc7_mbox_loc_perm
I1110 22:36:27.774395 28591 net.cpp:100] Creating Layer fc7_mbox_loc_perm
I1110 22:36:27.774399 28591 net.cpp:434] fc7_mbox_loc_perm <- fc7_mbox_loc
I1110 22:36:27.774404 28591 net.cpp:408] fc7_mbox_loc_perm -> fc7_mbox_loc_perm
I1110 22:36:27.774475 28591 net.cpp:150] Setting up fc7_mbox_loc_perm
I1110 22:36:27.774480 28591 net.cpp:157] Top shape: 16 19 19 24 (138624)
I1110 22:36:27.774483 28591 net.cpp:165] Memory required for data: 3982772896
I1110 22:36:27.774485 28591 layer_factory.hpp:77] Creating layer fc7_mbox_loc_flat
I1110 22:36:27.774490 28591 net.cpp:100] Creating Layer fc7_mbox_loc_flat
I1110 22:36:27.774493 28591 net.cpp:434] fc7_mbox_loc_flat <- fc7_mbox_loc_perm
I1110 22:36:27.774497 28591 net.cpp:408] fc7_mbox_loc_flat -> fc7_mbox_loc_flat
I1110 22:36:27.774513 28591 net.cpp:150] Setting up fc7_mbox_loc_flat
I1110 22:36:27.774518 28591 net.cpp:157] Top shape: 16 8664 (138624)
I1110 22:36:27.774520 28591 net.cpp:165] Memory required for data: 3983327392
I1110 22:36:27.774523 28591 layer_factory.hpp:77] Creating layer fc7_mbox_conf
I1110 22:36:27.774529 28591 net.cpp:100] Creating Layer fc7_mbox_conf
I1110 22:36:27.774533 28591 net.cpp:434] fc7_mbox_conf <- fc7_relu7_0_split_2
I1110 22:36:27.774538 28591 net.cpp:408] fc7_mbox_conf -> fc7_mbox_conf
I1110 22:36:27.780639 28591 net.cpp:150] Setting up fc7_mbox_conf
I1110 22:36:27.780658 28591 net.cpp:157] Top shape: 16 126 19 19 (727776)
I1110 22:36:27.780659 28591 net.cpp:165] Memory required for data: 3986238496
I1110 22:36:27.780668 28591 layer_factory.hpp:77] Creating layer fc7_mbox_conf_perm
I1110 22:36:27.780675 28591 net.cpp:100] Creating Layer fc7_mbox_conf_perm
I1110 22:36:27.780678 28591 net.cpp:434] fc7_mbox_conf_perm <- fc7_mbox_conf
I1110 22:36:27.780684 28591 net.cpp:408] fc7_mbox_conf_perm -> fc7_mbox_conf_perm
I1110 22:36:27.780762 28591 net.cpp:150] Setting up fc7_mbox_conf_perm
I1110 22:36:27.780768 28591 net.cpp:157] Top shape: 16 19 19 126 (727776)
I1110 22:36:27.780771 28591 net.cpp:165] Memory required for data: 3989149600
I1110 22:36:27.780772 28591 layer_factory.hpp:77] Creating layer fc7_mbox_conf_flat
I1110 22:36:27.780777 28591 net.cpp:100] Creating Layer fc7_mbox_conf_flat
I1110 22:36:27.780779 28591 net.cpp:434] fc7_mbox_conf_flat <- fc7_mbox_conf_perm
I1110 22:36:27.780783 28591 net.cpp:408] fc7_mbox_conf_flat -> fc7_mbox_conf_flat
I1110 22:36:27.780800 28591 net.cpp:150] Setting up fc7_mbox_conf_flat
I1110 22:36:27.780805 28591 net.cpp:157] Top shape: 16 45486 (727776)
I1110 22:36:27.780807 28591 net.cpp:165] Memory required for data: 3992060704
I1110 22:36:27.780820 28591 layer_factory.hpp:77] Creating layer fc7_mbox_priorbox
I1110 22:36:27.780827 28591 net.cpp:100] Creating Layer fc7_mbox_priorbox
I1110 22:36:27.780830 28591 net.cpp:434] fc7_mbox_priorbox <- fc7_relu7_0_split_3
I1110 22:36:27.780834 28591 net.cpp:434] fc7_mbox_priorbox <- data_data_0_split_2
I1110 22:36:27.780839 28591 net.cpp:408] fc7_mbox_priorbox -> fc7_mbox_priorbox
I1110 22:36:27.780859 28591 net.cpp:150] Setting up fc7_mbox_priorbox
I1110 22:36:27.780865 28591 net.cpp:157] Top shape: 1 2 8664 (17328)
I1110 22:36:27.780869 28591 net.cpp:165] Memory required for data: 3992130016
I1110 22:36:27.780870 28591 layer_factory.hpp:77] Creating layer conv6_2_mbox_loc
I1110 22:36:27.780879 28591 net.cpp:100] Creating Layer conv6_2_mbox_loc
I1110 22:36:27.780882 28591 net.cpp:434] conv6_2_mbox_loc <- conv6_2_conv6_2_relu_0_split_1
I1110 22:36:27.780886 28591 net.cpp:408] conv6_2_mbox_loc -> conv6_2_mbox_loc
I1110 22:36:27.782308 28591 net.cpp:150] Setting up conv6_2_mbox_loc
I1110 22:36:27.782316 28591 net.cpp:157] Top shape: 16 24 10 10 (38400)
I1110 22:36:27.782320 28591 net.cpp:165] Memory required for data: 3992283616
I1110 22:36:27.782325 28591 layer_factory.hpp:77] Creating layer conv6_2_mbox_loc_perm
I1110 22:36:27.782331 28591 net.cpp:100] Creating Layer conv6_2_mbox_loc_perm
I1110 22:36:27.782335 28591 net.cpp:434] conv6_2_mbox_loc_perm <- conv6_2_mbox_loc
I1110 22:36:27.782339 28591 net.cpp:408] conv6_2_mbox_loc_perm -> conv6_2_mbox_loc_perm
I1110 22:36:27.782416 28591 net.cpp:150] Setting up conv6_2_mbox_loc_perm
I1110 22:36:27.782421 28591 net.cpp:157] Top shape: 16 10 10 24 (38400)
I1110 22:36:27.782424 28591 net.cpp:165] Memory required for data: 3992437216
I1110 22:36:27.782428 28591 layer_factory.hpp:77] Creating layer conv6_2_mbox_loc_flat
I1110 22:36:27.782431 28591 net.cpp:100] Creating Layer conv6_2_mbox_loc_flat
I1110 22:36:27.782434 28591 net.cpp:434] conv6_2_mbox_loc_flat <- conv6_2_mbox_loc_perm
I1110 22:36:27.782438 28591 net.cpp:408] conv6_2_mbox_loc_flat -> conv6_2_mbox_loc_flat
I1110 22:36:27.782456 28591 net.cpp:150] Setting up conv6_2_mbox_loc_flat
I1110 22:36:27.782460 28591 net.cpp:157] Top shape: 16 2400 (38400)
I1110 22:36:27.782462 28591 net.cpp:165] Memory required for data: 3992590816
I1110 22:36:27.782464 28591 layer_factory.hpp:77] Creating layer conv6_2_mbox_conf
I1110 22:36:27.782472 28591 net.cpp:100] Creating Layer conv6_2_mbox_conf
I1110 22:36:27.782476 28591 net.cpp:434] conv6_2_mbox_conf <- conv6_2_conv6_2_relu_0_split_2
I1110 22:36:27.782480 28591 net.cpp:408] conv6_2_mbox_conf -> conv6_2_mbox_conf
I1110 22:36:27.786150 28591 net.cpp:150] Setting up conv6_2_mbox_conf
I1110 22:36:27.786164 28591 net.cpp:157] Top shape: 16 126 10 10 (201600)
I1110 22:36:27.786166 28591 net.cpp:165] Memory required for data: 3993397216
I1110 22:36:27.786172 28591 layer_factory.hpp:77] Creating layer conv6_2_mbox_conf_perm
I1110 22:36:27.786178 28591 net.cpp:100] Creating Layer conv6_2_mbox_conf_perm
I1110 22:36:27.786183 28591 net.cpp:434] conv6_2_mbox_conf_perm <- conv6_2_mbox_conf
I1110 22:36:27.786190 28591 net.cpp:408] conv6_2_mbox_conf_perm -> conv6_2_mbox_conf_perm
I1110 22:36:27.786272 28591 net.cpp:150] Setting up conv6_2_mbox_conf_perm
I1110 22:36:27.786276 28591 net.cpp:157] Top shape: 16 10 10 126 (201600)
I1110 22:36:27.786279 28591 net.cpp:165] Memory required for data: 3994203616
I1110 22:36:27.786281 28591 layer_factory.hpp:77] Creating layer conv6_2_mbox_conf_flat
I1110 22:36:27.786286 28591 net.cpp:100] Creating Layer conv6_2_mbox_conf_flat
I1110 22:36:27.786289 28591 net.cpp:434] conv6_2_mbox_conf_flat <- conv6_2_mbox_conf_perm
I1110 22:36:27.786294 28591 net.cpp:408] conv6_2_mbox_conf_flat -> conv6_2_mbox_conf_flat
I1110 22:36:27.786312 28591 net.cpp:150] Setting up conv6_2_mbox_conf_flat
I1110 22:36:27.786317 28591 net.cpp:157] Top shape: 16 12600 (201600)
I1110 22:36:27.786319 28591 net.cpp:165] Memory required for data: 3995010016
I1110 22:36:27.786322 28591 layer_factory.hpp:77] Creating layer conv6_2_mbox_priorbox
I1110 22:36:27.786327 28591 net.cpp:100] Creating Layer conv6_2_mbox_priorbox
I1110 22:36:27.786339 28591 net.cpp:434] conv6_2_mbox_priorbox <- conv6_2_conv6_2_relu_0_split_3
I1110 22:36:27.786343 28591 net.cpp:434] conv6_2_mbox_priorbox <- data_data_0_split_3
I1110 22:36:27.786350 28591 net.cpp:408] conv6_2_mbox_priorbox -> conv6_2_mbox_priorbox
I1110 22:36:27.786370 28591 net.cpp:150] Setting up conv6_2_mbox_priorbox
I1110 22:36:27.786375 28591 net.cpp:157] Top shape: 1 2 2400 (4800)
I1110 22:36:27.786377 28591 net.cpp:165] Memory required for data: 3995029216
I1110 22:36:27.786381 28591 layer_factory.hpp:77] Creating layer conv7_2_mbox_loc
I1110 22:36:27.786387 28591 net.cpp:100] Creating Layer conv7_2_mbox_loc
I1110 22:36:27.786391 28591 net.cpp:434] conv7_2_mbox_loc <- conv7_2_conv7_2_relu_0_split_1
I1110 22:36:27.786396 28591 net.cpp:408] conv7_2_mbox_loc -> conv7_2_mbox_loc
I1110 22:36:27.787408 28591 net.cpp:150] Setting up conv7_2_mbox_loc
I1110 22:36:27.787417 28591 net.cpp:157] Top shape: 16 24 5 5 (9600)
I1110 22:36:27.787420 28591 net.cpp:165] Memory required for data: 3995067616
I1110 22:36:27.787425 28591 layer_factory.hpp:77] Creating layer conv7_2_mbox_loc_perm
I1110 22:36:27.787431 28591 net.cpp:100] Creating Layer conv7_2_mbox_loc_perm
I1110 22:36:27.787434 28591 net.cpp:434] conv7_2_mbox_loc_perm <- conv7_2_mbox_loc
I1110 22:36:27.787439 28591 net.cpp:408] conv7_2_mbox_loc_perm -> conv7_2_mbox_loc_perm
I1110 22:36:27.787514 28591 net.cpp:150] Setting up conv7_2_mbox_loc_perm
I1110 22:36:27.787520 28591 net.cpp:157] Top shape: 16 5 5 24 (9600)
I1110 22:36:27.787523 28591 net.cpp:165] Memory required for data: 3995106016
I1110 22:36:27.787525 28591 layer_factory.hpp:77] Creating layer conv7_2_mbox_loc_flat
I1110 22:36:27.787529 28591 net.cpp:100] Creating Layer conv7_2_mbox_loc_flat
I1110 22:36:27.787533 28591 net.cpp:434] conv7_2_mbox_loc_flat <- conv7_2_mbox_loc_perm
I1110 22:36:27.787537 28591 net.cpp:408] conv7_2_mbox_loc_flat -> conv7_2_mbox_loc_flat
I1110 22:36:27.787554 28591 net.cpp:150] Setting up conv7_2_mbox_loc_flat
I1110 22:36:27.787559 28591 net.cpp:157] Top shape: 16 600 (9600)
I1110 22:36:27.787561 28591 net.cpp:165] Memory required for data: 3995144416
I1110 22:36:27.787564 28591 layer_factory.hpp:77] Creating layer conv7_2_mbox_conf
I1110 22:36:27.787571 28591 net.cpp:100] Creating Layer conv7_2_mbox_conf
I1110 22:36:27.787575 28591 net.cpp:434] conv7_2_mbox_conf <- conv7_2_conv7_2_relu_0_split_2
I1110 22:36:27.787580 28591 net.cpp:408] conv7_2_mbox_conf -> conv7_2_mbox_conf
I1110 22:36:27.790205 28591 net.cpp:150] Setting up conv7_2_mbox_conf
I1110 22:36:27.790215 28591 net.cpp:157] Top shape: 16 126 5 5 (50400)
I1110 22:36:27.790217 28591 net.cpp:165] Memory required for data: 3995346016
I1110 22:36:27.790223 28591 layer_factory.hpp:77] Creating layer conv7_2_mbox_conf_perm
I1110 22:36:27.790230 28591 net.cpp:100] Creating Layer conv7_2_mbox_conf_perm
I1110 22:36:27.790232 28591 net.cpp:434] conv7_2_mbox_conf_perm <- conv7_2_mbox_conf
I1110 22:36:27.790238 28591 net.cpp:408] conv7_2_mbox_conf_perm -> conv7_2_mbox_conf_perm
I1110 22:36:27.790318 28591 net.cpp:150] Setting up conv7_2_mbox_conf_perm
I1110 22:36:27.790323 28591 net.cpp:157] Top shape: 16 5 5 126 (50400)
I1110 22:36:27.790325 28591 net.cpp:165] Memory required for data: 3995547616
I1110 22:36:27.790328 28591 layer_factory.hpp:77] Creating layer conv7_2_mbox_conf_flat
I1110 22:36:27.790333 28591 net.cpp:100] Creating Layer conv7_2_mbox_conf_flat
I1110 22:36:27.790336 28591 net.cpp:434] conv7_2_mbox_conf_flat <- conv7_2_mbox_conf_perm
I1110 22:36:27.790340 28591 net.cpp:408] conv7_2_mbox_conf_flat -> conv7_2_mbox_conf_flat
I1110 22:36:27.790359 28591 net.cpp:150] Setting up conv7_2_mbox_conf_flat
I1110 22:36:27.790362 28591 net.cpp:157] Top shape: 16 3150 (50400)
I1110 22:36:27.790364 28591 net.cpp:165] Memory required for data: 3995749216
I1110 22:36:27.790367 28591 layer_factory.hpp:77] Creating layer conv7_2_mbox_priorbox
I1110 22:36:27.790374 28591 net.cpp:100] Creating Layer conv7_2_mbox_priorbox
I1110 22:36:27.790376 28591 net.cpp:434] conv7_2_mbox_priorbox <- conv7_2_conv7_2_relu_0_split_3
I1110 22:36:27.790388 28591 net.cpp:434] conv7_2_mbox_priorbox <- data_data_0_split_4
I1110 22:36:27.790395 28591 net.cpp:408] conv7_2_mbox_priorbox -> conv7_2_mbox_priorbox
I1110 22:36:27.790415 28591 net.cpp:150] Setting up conv7_2_mbox_priorbox
I1110 22:36:27.790419 28591 net.cpp:157] Top shape: 1 2 600 (1200)
I1110 22:36:27.790421 28591 net.cpp:165] Memory required for data: 3995754016
I1110 22:36:27.790424 28591 layer_factory.hpp:77] Creating layer conv8_2_mbox_loc
I1110 22:36:27.790431 28591 net.cpp:100] Creating Layer conv8_2_mbox_loc
I1110 22:36:27.790434 28591 net.cpp:434] conv8_2_mbox_loc <- conv8_2_conv8_2_relu_0_split_1
I1110 22:36:27.790441 28591 net.cpp:408] conv8_2_mbox_loc -> conv8_2_mbox_loc
I1110 22:36:27.791658 28591 net.cpp:150] Setting up conv8_2_mbox_loc
I1110 22:36:27.791667 28591 net.cpp:157] Top shape: 16 16 3 3 (2304)
I1110 22:36:27.791671 28591 net.cpp:165] Memory required for data: 3995763232
I1110 22:36:27.791683 28591 layer_factory.hpp:77] Creating layer conv8_2_mbox_loc_perm
I1110 22:36:27.791689 28591 net.cpp:100] Creating Layer conv8_2_mbox_loc_perm
I1110 22:36:27.791692 28591 net.cpp:434] conv8_2_mbox_loc_perm <- conv8_2_mbox_loc
I1110 22:36:27.791699 28591 net.cpp:408] conv8_2_mbox_loc_perm -> conv8_2_mbox_loc_perm
I1110 22:36:27.791791 28591 net.cpp:150] Setting up conv8_2_mbox_loc_perm
I1110 22:36:27.791797 28591 net.cpp:157] Top shape: 16 3 3 16 (2304)
I1110 22:36:27.791800 28591 net.cpp:165] Memory required for data: 3995772448
I1110 22:36:27.791802 28591 layer_factory.hpp:77] Creating layer conv8_2_mbox_loc_flat
I1110 22:36:27.791806 28591 net.cpp:100] Creating Layer conv8_2_mbox_loc_flat
I1110 22:36:27.791810 28591 net.cpp:434] conv8_2_mbox_loc_flat <- conv8_2_mbox_loc_perm
I1110 22:36:27.791815 28591 net.cpp:408] conv8_2_mbox_loc_flat -> conv8_2_mbox_loc_flat
I1110 22:36:27.791833 28591 net.cpp:150] Setting up conv8_2_mbox_loc_flat
I1110 22:36:27.791837 28591 net.cpp:157] Top shape: 16 144 (2304)
I1110 22:36:27.791841 28591 net.cpp:165] Memory required for data: 3995781664
I1110 22:36:27.791842 28591 layer_factory.hpp:77] Creating layer conv8_2_mbox_conf
I1110 22:36:27.791849 28591 net.cpp:100] Creating Layer conv8_2_mbox_conf
I1110 22:36:27.791853 28591 net.cpp:434] conv8_2_mbox_conf <- conv8_2_conv8_2_relu_0_split_2
I1110 22:36:27.791857 28591 net.cpp:408] conv8_2_mbox_conf -> conv8_2_mbox_conf
I1110 22:36:27.793573 28591 net.cpp:150] Setting up conv8_2_mbox_conf
I1110 22:36:27.793582 28591 net.cpp:157] Top shape: 16 84 3 3 (12096)
I1110 22:36:27.793586 28591 net.cpp:165] Memory required for data: 3995830048
I1110 22:36:27.793591 28591 layer_factory.hpp:77] Creating layer conv8_2_mbox_conf_perm
I1110 22:36:27.793597 28591 net.cpp:100] Creating Layer conv8_2_mbox_conf_perm
I1110 22:36:27.793601 28591 net.cpp:434] conv8_2_mbox_conf_perm <- conv8_2_mbox_conf
I1110 22:36:27.793606 28591 net.cpp:408] conv8_2_mbox_conf_perm -> conv8_2_mbox_conf_perm
I1110 22:36:27.793684 28591 net.cpp:150] Setting up conv8_2_mbox_conf_perm
I1110 22:36:27.793689 28591 net.cpp:157] Top shape: 16 3 3 84 (12096)
I1110 22:36:27.793692 28591 net.cpp:165] Memory required for data: 3995878432
I1110 22:36:27.793694 28591 layer_factory.hpp:77] Creating layer conv8_2_mbox_conf_flat
I1110 22:36:27.793699 28591 net.cpp:100] Creating Layer conv8_2_mbox_conf_flat
I1110 22:36:27.793701 28591 net.cpp:434] conv8_2_mbox_conf_flat <- conv8_2_mbox_conf_perm
I1110 22:36:27.793706 28591 net.cpp:408] conv8_2_mbox_conf_flat -> conv8_2_mbox_conf_flat
I1110 22:36:27.793725 28591 net.cpp:150] Setting up conv8_2_mbox_conf_flat
I1110 22:36:27.793730 28591 net.cpp:157] Top shape: 16 756 (12096)
I1110 22:36:27.793731 28591 net.cpp:165] Memory required for data: 3995926816
I1110 22:36:27.793735 28591 layer_factory.hpp:77] Creating layer conv8_2_mbox_priorbox
I1110 22:36:27.793740 28591 net.cpp:100] Creating Layer conv8_2_mbox_priorbox
I1110 22:36:27.793742 28591 net.cpp:434] conv8_2_mbox_priorbox <- conv8_2_conv8_2_relu_0_split_3
I1110 22:36:27.793745 28591 net.cpp:434] conv8_2_mbox_priorbox <- data_data_0_split_5
I1110 22:36:27.793758 28591 net.cpp:408] conv8_2_mbox_priorbox -> conv8_2_mbox_priorbox
I1110 22:36:27.793781 28591 net.cpp:150] Setting up conv8_2_mbox_priorbox
I1110 22:36:27.793784 28591 net.cpp:157] Top shape: 1 2 144 (288)
I1110 22:36:27.793787 28591 net.cpp:165] Memory required for data: 3995927968
I1110 22:36:27.793789 28591 layer_factory.hpp:77] Creating layer conv9_2_mbox_loc
I1110 22:36:27.793797 28591 net.cpp:100] Creating Layer conv9_2_mbox_loc
I1110 22:36:27.793799 28591 net.cpp:434] conv9_2_mbox_loc <- conv9_2_conv9_2_relu_0_split_0
I1110 22:36:27.793804 28591 net.cpp:408] conv9_2_mbox_loc -> conv9_2_mbox_loc
I1110 22:36:27.794757 28591 net.cpp:150] Setting up conv9_2_mbox_loc
I1110 22:36:27.794766 28591 net.cpp:157] Top shape: 16 16 1 1 (256)
I1110 22:36:27.794769 28591 net.cpp:165] Memory required for data: 3995928992
I1110 22:36:27.794772 28591 layer_factory.hpp:77] Creating layer conv9_2_mbox_loc_perm
I1110 22:36:27.794780 28591 net.cpp:100] Creating Layer conv9_2_mbox_loc_perm
I1110 22:36:27.794783 28591 net.cpp:434] conv9_2_mbox_loc_perm <- conv9_2_mbox_loc
I1110 22:36:27.794788 28591 net.cpp:408] conv9_2_mbox_loc_perm -> conv9_2_mbox_loc_perm
I1110 22:36:27.794869 28591 net.cpp:150] Setting up conv9_2_mbox_loc_perm
I1110 22:36:27.794875 28591 net.cpp:157] Top shape: 16 1 1 16 (256)
I1110 22:36:27.794879 28591 net.cpp:165] Memory required for data: 3995930016
I1110 22:36:27.794881 28591 layer_factory.hpp:77] Creating layer conv9_2_mbox_loc_flat
I1110 22:36:27.794885 28591 net.cpp:100] Creating Layer conv9_2_mbox_loc_flat
I1110 22:36:27.794888 28591 net.cpp:434] conv9_2_mbox_loc_flat <- conv9_2_mbox_loc_perm
I1110 22:36:27.794893 28591 net.cpp:408] conv9_2_mbox_loc_flat -> conv9_2_mbox_loc_flat
I1110 22:36:27.794910 28591 net.cpp:150] Setting up conv9_2_mbox_loc_flat
I1110 22:36:27.794915 28591 net.cpp:157] Top shape: 16 16 (256)
I1110 22:36:27.794919 28591 net.cpp:165] Memory required for data: 3995931040
I1110 22:36:27.794921 28591 layer_factory.hpp:77] Creating layer conv9_2_mbox_conf
I1110 22:36:27.794927 28591 net.cpp:100] Creating Layer conv9_2_mbox_conf
I1110 22:36:27.794931 28591 net.cpp:434] conv9_2_mbox_conf <- conv9_2_conv9_2_relu_0_split_1
I1110 22:36:27.794936 28591 net.cpp:408] conv9_2_mbox_conf -> conv9_2_mbox_conf
I1110 22:36:27.796653 28591 net.cpp:150] Setting up conv9_2_mbox_conf
I1110 22:36:27.796663 28591 net.cpp:157] Top shape: 16 84 1 1 (1344)
I1110 22:36:27.796666 28591 net.cpp:165] Memory required for data: 3995936416
I1110 22:36:27.796671 28591 layer_factory.hpp:77] Creating layer conv9_2_mbox_conf_perm
I1110 22:36:27.796676 28591 net.cpp:100] Creating Layer conv9_2_mbox_conf_perm
I1110 22:36:27.796679 28591 net.cpp:434] conv9_2_mbox_conf_perm <- conv9_2_mbox_conf
I1110 22:36:27.796685 28591 net.cpp:408] conv9_2_mbox_conf_perm -> conv9_2_mbox_conf_perm
I1110 22:36:27.796763 28591 net.cpp:150] Setting up conv9_2_mbox_conf_perm
I1110 22:36:27.796770 28591 net.cpp:157] Top shape: 16 1 1 84 (1344)
I1110 22:36:27.796772 28591 net.cpp:165] Memory required for data: 3995941792
I1110 22:36:27.796775 28591 layer_factory.hpp:77] Creating layer conv9_2_mbox_conf_flat
I1110 22:36:27.796778 28591 net.cpp:100] Creating Layer conv9_2_mbox_conf_flat
I1110 22:36:27.796782 28591 net.cpp:434] conv9_2_mbox_conf_flat <- conv9_2_mbox_conf_perm
I1110 22:36:27.796787 28591 net.cpp:408] conv9_2_mbox_conf_flat -> conv9_2_mbox_conf_flat
I1110 22:36:27.796805 28591 net.cpp:150] Setting up conv9_2_mbox_conf_flat
I1110 22:36:27.796809 28591 net.cpp:157] Top shape: 16 84 (1344)
I1110 22:36:27.796813 28591 net.cpp:165] Memory required for data: 3995947168
I1110 22:36:27.796814 28591 layer_factory.hpp:77] Creating layer conv9_2_mbox_priorbox
I1110 22:36:27.796820 28591 net.cpp:100] Creating Layer conv9_2_mbox_priorbox
I1110 22:36:27.796823 28591 net.cpp:434] conv9_2_mbox_priorbox <- conv9_2_conv9_2_relu_0_split_2
I1110 22:36:27.796828 28591 net.cpp:434] conv9_2_mbox_priorbox <- data_data_0_split_6
I1110 22:36:27.796833 28591 net.cpp:408] conv9_2_mbox_priorbox -> conv9_2_mbox_priorbox
I1110 22:36:27.796857 28591 net.cpp:150] Setting up conv9_2_mbox_priorbox
I1110 22:36:27.796862 28591 net.cpp:157] Top shape: 1 2 16 (32)
I1110 22:36:27.796865 28591 net.cpp:165] Memory required for data: 3995947296
I1110 22:36:27.796867 28591 layer_factory.hpp:77] Creating layer mbox_loc
I1110 22:36:27.796874 28591 net.cpp:100] Creating Layer mbox_loc
I1110 22:36:27.796877 28591 net.cpp:434] mbox_loc <- conv4_3_norm_mbox_loc_flat
I1110 22:36:27.796882 28591 net.cpp:434] mbox_loc <- fc7_mbox_loc_flat
I1110 22:36:27.796886 28591 net.cpp:434] mbox_loc <- conv6_2_mbox_loc_flat
I1110 22:36:27.796890 28591 net.cpp:434] mbox_loc <- conv7_2_mbox_loc_flat
I1110 22:36:27.796893 28591 net.cpp:434] mbox_loc <- conv8_2_mbox_loc_flat
I1110 22:36:27.796897 28591 net.cpp:434] mbox_loc <- conv9_2_mbox_loc_flat
I1110 22:36:27.796902 28591 net.cpp:408] mbox_loc -> mbox_loc
I1110 22:36:27.796923 28591 net.cpp:150] Setting up mbox_loc
I1110 22:36:27.796927 28591 net.cpp:157] Top shape: 16 34928 (558848)
I1110 22:36:27.796931 28591 net.cpp:165] Memory required for data: 3998182688
I1110 22:36:27.796932 28591 layer_factory.hpp:77] Creating layer mbox_conf
I1110 22:36:27.796937 28591 net.cpp:100] Creating Layer mbox_conf
I1110 22:36:27.796941 28591 net.cpp:434] mbox_conf <- conv4_3_norm_mbox_conf_flat
I1110 22:36:27.796944 28591 net.cpp:434] mbox_conf <- fc7_mbox_conf_flat
I1110 22:36:27.796948 28591 net.cpp:434] mbox_conf <- conv6_2_mbox_conf_flat
I1110 22:36:27.796952 28591 net.cpp:434] mbox_conf <- conv7_2_mbox_conf_flat
I1110 22:36:27.796954 28591 net.cpp:434] mbox_conf <- conv8_2_mbox_conf_flat
I1110 22:36:27.796957 28591 net.cpp:434] mbox_conf <- conv9_2_mbox_conf_flat
I1110 22:36:27.796962 28591 net.cpp:408] mbox_conf -> mbox_conf
I1110 22:36:27.796978 28591 net.cpp:150] Setting up mbox_conf
I1110 22:36:27.796983 28591 net.cpp:157] Top shape: 16 183372 (2933952)
I1110 22:36:27.796986 28591 net.cpp:165] Memory required for data: 4009918496
I1110 22:36:27.796988 28591 layer_factory.hpp:77] Creating layer mbox_priorbox
I1110 22:36:27.796993 28591 net.cpp:100] Creating Layer mbox_priorbox
I1110 22:36:27.796996 28591 net.cpp:434] mbox_priorbox <- conv4_3_norm_mbox_priorbox
I1110 22:36:27.796999 28591 net.cpp:434] mbox_priorbox <- fc7_mbox_priorbox
I1110 22:36:27.797003 28591 net.cpp:434] mbox_priorbox <- conv6_2_mbox_priorbox
I1110 22:36:27.797006 28591 net.cpp:434] mbox_priorbox <- conv7_2_mbox_priorbox
I1110 22:36:27.797008 28591 net.cpp:434] mbox_priorbox <- conv8_2_mbox_priorbox
I1110 22:36:27.797013 28591 net.cpp:434] mbox_priorbox <- conv9_2_mbox_priorbox
I1110 22:36:27.797015 28591 net.cpp:408] mbox_priorbox -> mbox_priorbox
I1110 22:36:27.797032 28591 net.cpp:150] Setting up mbox_priorbox
I1110 22:36:27.797036 28591 net.cpp:157] Top shape: 1 2 34928 (69856)
I1110 22:36:27.797040 28591 net.cpp:165] Memory required for data: 4010197920
I1110 22:36:27.797042 28591 layer_factory.hpp:77] Creating layer mbox_loss
I1110 22:36:27.797049 28591 net.cpp:100] Creating Layer mbox_loss
I1110 22:36:27.797052 28591 net.cpp:434] mbox_loss <- mbox_loc
I1110 22:36:27.797056 28591 net.cpp:434] mbox_loss <- mbox_conf
I1110 22:36:27.797060 28591 net.cpp:434] mbox_loss <- mbox_priorbox
…
  name: "data"
  type: "AnnotatedData"
  top: "data"
  top: "label"
  include {
    phase: TEST
  }
  transform_param {
    mean_value: 104
    mean_value: 117
    mean_value: 123
    resize_param {
      prob: 1
      resize_mode: WARP
      height: 300
      width: 300
      interp_mode: LINEAR
    }
  }
  data_param {
    source: "/media/lenovo/256G/ChenJ/VOCdevkit/VOC0712/lmdb/VOC0712_test_lmdb"
    batch_size: 8
    backend: LMDB
  }
  annotated_data_param {
    batch_sampler {
    }
    label_map_file: "data/VOC0712/labelmap_voc.prototxt"
  }
}
layer {
  name: "conv1_1"
  type: "Convolution"
  bottom: "data"
  top: "conv1_1"
  param {
    lr_mult: 1
    decay_mult: 1
  }
  param {
    lr_mult: 2
    decay_mult: 0
  }
  convolution_param {
    num_output: 64
    pad: 1
    kernel_size: 3
    weight_filler {
      type: "xavier"
    }
    bias_filler {
      type: "constant"
      value: 0
    }
  }
}
layer {
  name: "relu1_1"
  type: "ReLU"
  bottom: "conv1_1"
  top: "conv1_1"
}
layer {
  name: "conv1_2"
  type: "Convolution"
  bottom: "conv1_1"
  top: "conv1_2"
  param {
    lr_mult: 1
    decay_mult: 1
  }
  param {
    lr_mult: 2
    decay_mult: 0
  }
  convolution_param {
    num_output: 64
    pad: 1
    kernel_size: 3
    weight_filler {
      type: "xavier"
    }
    bias_filler {
      type: "constant"
      value: 0
    }
  }
}
layer {
  name: "relu1_2"
  type: "ReLU"
  bottom: "conv1_2"
  top: "conv1_2"
}
layer {
  name: "pool1"
  type: "Pooling"
  bottom: "conv1_2"
  top: "pool1"
  pooling_param {
    pool: MAX
    kernel_size: 2
    stride: 2
  }
}
layer {
  name: "conv2_1"
  type: "Convolution"
  bottom: "pool1"
  top: "conv2_1"
  param {
    lr_mult: 1
    decay_mult: 1
  }
  param {
    lr_mult: 2
    decay_mult: 0
  }
  convolution_param {
    num_output: 128
    pad: 1
    kernel_size: 3
    weight_filler {
      type: "xavier"
    }
    bias_filler {
      type: "constant"
      value: 0
    }
  }
}
layer {
  name: "relu2_1"
  type: "ReLU"
  bottom: "conv2_1"
  top: "conv2_1"
}
layer {
  name: "conv2_2"
  type: "Convolution"
  bottom: "conv2_1"
  top: "conv2_2"
  param {
    lr_mult: 1
    decay_mult: 1
  }
  param {
    lr_mult: 2
    decay_mult: 0
  }
  convolution_param {
    num_output: 128
    pad: 1
    kernel_size: 3
    weight_filler {
      type: "xavier"
    }
    bias_filler {
      type: "constant"
      value: 0
    }
  }
}
layer {
  name: "relu2_2"
  type: "ReLU"
  bottom: "conv2_2"
  top: "conv2_2"
}
layer {
  name: "pool2"
  type: "Pooling"
  bottom: "conv2_2"
  top: "pool2"
  pooling_param {
    pool: MAX
    kernel_size: 2
    stride: 2
  }
}
layer {
  name: "conv3_1"
  type: "Convolution"
  bottom: "pool2"
  top: "conv3_1"
  param {
    lr_mult: 1
    decay_mult: 1
  }
  param {
    lr_mult: 2
    decay_mult: 0
  }
  convolution_param {
    num_output: 256
    pad: 1
    kernel_size: 3
    weight_filler {
      type: "xavier"
    }
    bias_filler {
      type: "constant"
      value: 0
    }
  }
}
layer {
  name: "relu3_1"
  type: "ReLU"
  bottom: "conv3_1"
  top: "conv3_1"
}
layer {
  name: "conv3_2"
  type: "Convolution"
  bottom: "conv3_1"
  top: "conv3_2"
  param {
    lr_mult: 1
    decay_mult: 1
  }
  param {
    lr_mult: 2
    decay_mult: 0
  }
  convolution_param {
    num_output: 256
    pad: 1
    kernel_size: 3
    weight_filler {
      type: "xavier"
    }
    bias_filler {
      type: "constant"
      value: 0
    }
  }
}
layer {
  name: "relu3_2"
  type: "ReLU"
  bottom: "conv3_2"
  top: "conv3_2"
}
layer {
  name: "conv3_3"
  type: "Convolution"
  bottom: "conv3_2"
  top: "conv3_3"
  param {
    lr_mult: 1
    decay_mult: 1
  }
  param {
    lr_mult: 2
    decay_mult: 0
  }
  convolution_param {
    num_output: 256
    pad: 1
    kernel_size: 3
    weight_filler {
      type: "xavier"
    }
    bias_filler {
      type: "constant"
      value: 0
    }
  }
}
layer {
  name: "relu3_3"
  type: "ReLU"
  bottom: "conv3_3"
  top: "conv3_3"
}
layer {
  name: "pool3"
  type: "Pooling"
  bottom: "conv3_3"
  top: "pool3"
  pooling_param {
    pool: MAX
    kernel_size: 2
    stride: 2
  }
}
layer {
  name: "conv4_1"
  type: "Convolution"
  bottom: "pool3"
  top: "conv4_1"
  param {
    lr_mult: 1
    decay_mult: 1
  }
  param {
    lr_mult: 2
    decay_mult: 0
  }
  convolution_param {
    num_output: 512
    pad: 1
    kernel_size: 3
    weight_filler {
      type: "xavier"
    }
    bias_filler {
      type: "constant"
      value: 0
    }
  }
}
layer {
  name: "relu4_1"
  type: "ReLU"
  bottom: "conv4_1"
  top: "conv4_1"
}
layer {
  name: "conv4_2"
  type: "Convolution"
  bottom: "conv4_1"
  top: "conv4_2"
  param {
    lr_mult: 1
    decay_mult: 1
  }
  param {
    lr_mult: 2
    decay_mult: 0
  }
  convolution_param {
    num_output: 512
    pad: 1
    kernel_size: 3
    weight_filler {
      type: "xavier"
    }
    bias_filler {
      type: "constant"
      value: 0
    }
  }
}
layer {
  name: "relu4_2"
  type: "ReLU"
  bottom: "conv4_2"
  top: "conv4_2"
}
layer {
  name: "conv4_3"
  type: "Convolution"
  bottom: "conv4_2"
  top: "conv4_3"
  param {
    lr_mult: 1
    decay_mult: 1
  }
  param {
    lr_mult: 2
    decay_mult: 0
  }
  convolution_param {
    num_output: 512
    pad: 1
    kernel_size: 3
    weight_filler {
      type: "xavier"
    }
    bias_filler {
      type: "constant"
      value: 0
    }
  }
}
layer {
  name: "relu4_3"
  type: "ReLU"
  bottom: "conv4_3"
  top: "conv4_3"
}
layer {
  name: "pool4"
  type: "Pooling"
  bottom: "conv4_3"
  top: "pool4"
  pooling_param {
    pool: MAX
    kernel_size: 2
    stride: 2
  }
}
layer {
  name: "conv5_1"
  type: "Convolution"
  bottom: "pool4"
  top: "conv5_1"
  param {
    lr_mult: 1
    decay_mult: 1
  }
  param {
    lr_mult: 2
    decay_mult: 0
  }
  convolution_param {
    num_output: 512
    pad: 1
    kernel_size: 3
    weight_filler {
      type: "xavier"
    }
    bias_filler {
      type: "constant"
      value: 0
    }
    dilation: 1
  }
}
layer {
  name: "relu5_1"
  type: "ReLU"
  bottom: "conv5_1"
  top: "conv5_1"
}
layer {
  name: "conv5_2"
  type: "Convolution"
  bottom: "conv5_1"
  top: "conv5_2"
  param {
    lr_mult: 1
    decay_mult: 1
  }
  param {
    lr_mult: 2
    decay_mult: 0
  }
  convolution_param {
    num_output: 512
    pad: 1
    kernel_size: 3
    weight_filler {
      type: "xavier"
    }
    bias_filler {
      type: "constant"
      value: 0
    }
    dilation: 1
  }
}
layer {
  name: "relu5_2"
  type: "ReLU"
  bottom: "conv5_2"
  top: "conv5_2"
}
layer {
  name: "conv5_3"
  type: "Convolution"
  bottom: "conv5_2"
  top: "conv5_3"
  param {
    lr_mult: 1
    decay_mult: 1
  }
  param {
    lr_mult: 2
    decay_mult: 0
  }
  convolution_param {
    num_output: 512
    pad: 1
    kernel_size: 3
    weight_filler {
      type: "xavier"
    }
    bias_filler {
      type: "constant"
      value: 0
    }
    dilation: 1
  }
}
layer {
  name: "relu5_3"
  type: "ReLU"
  bottom: "conv5_3"
  top: "conv5_3"
}
layer {
  name: "pool5"
  type: "Pooling"
  bottom: "conv5_3"
  top: "pool5"
  pooling_param {
    pool: MAX
    kernel_size: 3
    stride: 1
    pad: 1
  }
}
layer {
  name: "fc6"
  type: "Convolution"
  bottom: "pool5"
  top: "fc6"
  param {
    lr_mult: 1
    decay_mult: 1
  }
  param {
    lr_mult: 2
    decay_mult: 0
  }
  convolution_param {
    num_output: 1024
    pad: 6
    kernel_size: 3
    weight_filler {
      type: "xavier"
    }
    bias_filler {
      type: "constant"
      value: 0
    }
    dilation: 6
  }
}
layer {
  name: "relu6"
  type: "ReLU"
  bottom: "fc6"
  top: "fc6"
}
layer {
  name: "fc7"
  type: "Convolution"
  bottom: "fc6"
  top: "fc7"
  param {
    lr_mult: 1
    decay_mult: 1
  }
  param {
    lr_mult: 2
    decay_mult: 0
  }
  convolution_param {
    num_output: 1024
    kernel_size: 1
    weight_filler {
      type: "xavier"
    }
    bias_filler {
      type: "constant"
      value: 0
    }
  }
}
layer {
  name: "relu7"
  type: "ReLU"
  bottom: "fc7"
  top: "fc7"
}
layer {
  name: "conv6_1"
  type: "Convolution"
  bottom: "fc7"
  top: "conv6_1"
  param {
    lr_mult: 1
    decay_mult: 1
  }
  param {
    lr_mult: 2
    decay_mult: 0
  }
  convolution_param {
    num_output: 256
    pad: 0
    kernel_size: 1
    stride: 1
    weight_filler {
      type: "xavier"
    }
    bias_filler {
      type: "constant"
      value: 0
    }
  }
}
layer {
  name: "conv6_1_relu"
  type: "ReLU"
  bottom: "conv6_1"
  top: "conv6_1"
}
layer {
  name: "conv6_2"
  type: "Convolution"
  bottom: "conv6_1"
  top: "conv6_2"
  param {
    lr_mult: 1
    decay_mult: 1
  }
  param {
    lr_mult: 2
    decay_mult: 0
  }
  convolution_param {
    num_output: 512
    pad: 1
    kernel_size: 3
    stride: 2
    weight_filler {
      type: "xavier"
    }
    bias_filler {
      type: "constant"
      value: 0
    }
  }
}
layer {
  name: "conv6_2_relu"
  type: "ReLU"
  bottom: "conv6_2"
  top: "conv6_2"
}
layer {
  name: "conv7_1"
  type: "Convolution"
  bottom: "conv6_2"
  top: "conv7_1"
  param {
    lr_mult: 1
    decay_mult: 1
  }
  param {
    lr_mult: 2
    decay_mult: 0
  }
  convolution_param {
    num_output: 128
    pad: 0
    kernel_size: 1
    stride: 1
    weight_filler {
      type: "xavier"
    }
    bias_filler {
      type: "constant"
      value: 0
    }
  }
}
layer {
  name: "conv7_1_relu"
  type: "ReLU"
  bottom: "conv7_1"
  top: "conv7_1"
}
layer {
  name: "conv7_2"
  type: "Convolution"
  bottom: "conv7_1"
  top: "conv7_2"
  param {
    lr_mult: 1
    decay_mult: 1
  }
  param {
    lr_mult: 2
    decay_mult: 0
  }
  convolution_param {
    num_output: 256
    pad: 1
    kernel_size: 3
    stride: 2
    weight_filler {
      type: "xavier"
    }
    bias_filler {
      type: "constant"
      value: 0
    }
  }
}
layer {
  name: "conv7_2_relu"
  type: "ReLU"
  bottom: "conv7_2"
  top: "conv7_2"
}
layer {
  name: "conv8_1"
  type: "Convolution"
  bottom: "conv7_2"
  top: "conv8_1"
  param {
    lr_mult: 1
    decay_mult: 1
  }
  param {
    lr_mult: 2
    decay_mult: 0
  }
  convolution_param {
    num_output: 128
    pad: 0
    kernel_size: 1
    stride: 1
    weight_filler {
      type: "xavier"
    }
    bias_filler {
      type: "constant"
      value: 0
    }
  }
}
layer {
  name: "conv8_1_relu"
  type: "ReLU"
  bottom: "conv8_1"
  top: "conv8_1"
}
layer {
  name: "conv8_2"
  type: "Convolution"
  bottom: "conv8_1"
  top: "conv8_2"
  param {
    lr_mult: 1
    decay_mult: 1
  }
  param {
    lr_mult: 2
    decay_mult: 0
  }
  convolution_param {
    num_output: 256
    pad: 0
    kernel_size: 3
    stride: 1
    weight_filler {
      type: "xavier"
    }
    bias_filler {
      type: "constant"
      value: 0
    }
  }
}
layer {
  name: "conv8_2_relu"
  type: "ReLU"
  bottom: "conv8_2"
  top: "conv8_2"
}
layer {
  name: "conv9_1"
  type: "Convolution"
  bottom: "conv8_2"
  top: "conv9_1"
  param {
    lr_mult: 1
    decay_mult: 1
  }
  param {
    lr_mult: 2
    decay_mult: 0
  }
  convolution_param {
    num_output: 128
    pad: 0
    kernel_size: 1
    stride: 1
    weight_filler {
      type: "xavier"
    }
    bias_filler {
      type: "constant"
      value: 0
    }
  }
}
layer {
  name: "conv9_1_relu"
  type: "ReLU"
  bottom: "conv9_1"
  top: "conv9_1"
}
layer {
  name: "conv9_2"
  type: "Convolution"
  bottom: "conv9_1"
  top: "conv9_2"
  param {
    lr_mult: 1
    decay_mult: 1
  }
  param {
    lr_mult: 2
    decay_mult: 0
  }
  convolution_param {
    num_output: 256
    pad: 0
    kernel_size: 3
    stride: 1
    weight_filler {
      type: "xavier"
    }
    bias_filler {
      type: "constant"
      value: 0
    }
  }
}
layer {
  name: "conv9_2_relu"
  type: "ReLU"
  bottom: "conv9_2"
  top: "conv9_2"
}
layer {
  name: "conv4_3_norm"
  type: "Normalize"
  bottom: "conv4_3"
  top: "conv4_3_norm"
  norm_param {
    across_spatial: false
    scale_filler {
      type: "constant"
      value: 20
    }
    channel_shared: false
  }
}
layer {
  name: "conv4_3_norm_mbox_loc"
  type: "Convolution"
  bottom: "conv4_3_norm"
  top: "conv4_3_norm_mbox_loc"
  param {
    lr_mult: 1
    decay_mult: 1
  }
  param {
    lr_mult: 2
    decay_mult: 0
  }
  convolution_param {
    num_output: 16
    pad: 1
    kernel_size: 3
    stride: 1
    weight_filler {
      type: "xavier"
    }
    bias_filler {
      type: "constant"
      value: 0
    }
  }
}
layer {
  name: "conv4_3_norm_mbox_loc_perm"
  type: "Permute"
  bottom: "conv4_3_norm_mbox_loc"
  top: "conv4_3_norm_mbox_loc_perm"
  permute_param {
    order: 0
    order: 2
    order: 3
    order: 1
  }
}
layer {
  name: "conv4_3_norm_mbox_loc_flat"
  type: "Flatten"
  bottom: "conv4_3_norm_mbox_loc_perm"
  top: "conv4_3_norm_mbox_loc_flat"
  flatten_param {
    axis: 1
  }
}
layer {
  name: "conv4_3_norm_mbox_conf"
  type: "Convolution"
  bottom: "conv4_3_norm"
  top: "conv4_3_norm_mbox_conf"
  param {
    lr_mult: 1
    decay_mult: 1
  }
  param {
    lr_mult: 2
    decay_mult: 0
  }
  convolution_param {
    num_output: 84
    pad: 1
    kernel_size: 3
    stride: 1
    weight_filler {
      type: "xavier"
    }
    bias_filler {
      type: "constant"
      value: 0
    }
  }
}
layer {
  name: "conv4_3_norm_mbox_conf_perm"
  type: "Permute"
  bottom: "conv4_3_norm_mbox_conf"
  top: "conv4_3_norm_mbox_conf_perm"
  permute_param {
    order: 0
    order: 2
    order: 3
    order: 1
  }
}
layer {
  name: "conv4_3_norm_mbox_conf_flat"
  type: "Flatten"
  bottom: "conv4_3_norm_mbox_conf_perm"
  top: "conv4_3_norm_mbox_conf_flat"
  flatten_param {
    axis: 1
  }
}
layer {
  name: "conv4_3_norm_mbox_priorbox"
  type: "PriorBox"
  bottom: "conv4_3_norm"
  bottom: "data"
  top: "conv4_3_norm_mbox_priorbox"
  prior_box_param {
    min_size: 30
    max_size: 60
    aspect_ratio: 2
    flip: true
    clip: false
    variance: 0.1
    variance: 0.1
    variance: 0.2
    variance: 0.2
    step: 8
    offset: 0.5
  }
}
layer {
  name: "fc7_mbox_loc"
  type: "Convolution"
  bottom: "fc7"
  top: "fc7_mbox_loc"
  param {
    lr_mult: 1
    decay_mult: 1
  }
  param {
    lr_mult: 2
    decay_mult: 0
  }
  convolution_param {
    num_output: 24
    pad: 1
    kernel_size: 3
    stride: 1
    weight_filler {
      type: "xavier"
    }
    bias_filler {
      type: "constant"
      value: 0
    }
  }
}
layer {
  name: "fc7_mbox_loc_perm"
  type: "Permute"
  bottom: "fc7_mbox_loc"
  top: "fc7_mbox_loc_perm"
  permute_param {
    order: 0
    order: 2
    order: 3
    order: 1
  }
}
layer {
  name: "fc7_mbox_loc_flat"
  type: "Flatten"
  bottom: "fc7_mbox_loc_perm"
  top: "fc7_mbox_loc_flat"
  flatten_param {
    axis: 1
  }
}
layer {
  name: "fc7_mbox_conf"
  type: "Convolution"
  bottom: "fc7"
  top: "fc7_mbox_conf"
  param {
    lr_mult: 1
    decay_mult: 1
  }
  param {
    lr_mult: 2
    decay_mult: 0
  }
  convolution_param {
    num_output: 126
    pad: 1
    kernel_size: 3
    stride: 1
    weight_filler {
      type: "xavier"
    }
    bias_filler {
      type: "constant"
      value: 0
    }
  }
}
layer {
  name: "fc7_mbox_conf_perm"
  type: "Permute"
  bottom: "fc7_mbox_conf"
  top: "fc7_mbox_conf_perm"
  permute_param {
    order: 0
    order: 2
    order: 3
    order: 1
  }
}
layer {
  name: "fc7_mbox_conf_flat"
  type: "Flatten"
  bottom: "fc7_mbox_conf_perm"
  top: "fc7_mbox_conf_flat"
  flatten_param {
    axis: 1
  }
}
layer {
  name: "fc7_mbox_priorbox"
  type: "PriorBox"
  bottom: "fc7"
  bottom: "data"
  top: "fc7_mbox_priorbox"
  prior_box_param {
    min_size: 60
    max_size: 111
    aspect_ratio: 2
    aspect_ratio: 3
    flip: true
    clip: false
    variance: 0.1
    variance: 0.1
    variance: 0.2
    variance: 0.2
    step: 16
    offset: 0.5
  }
}
layer {
  name: "conv6_2_mbox_loc"
  type: "Convolution"
  bottom: "conv6_2"
  top: "conv6_2_mbox_loc"
  param {
    lr_mult: 1
    decay_mult: 1
  }
  param {
    lr_mult: 2
    decay_mult: 0
  }
  convolution_param {
    num_output: 24
    pad: 1
    kernel_size: 3
    stride: 1
    weight_filler {
      type: "xavier"
    }
    bias_filler {
      type: "constant"
      value: 0
    }
  }
}
layer {
  name: "conv6_2_mbox_loc_perm"
  type: "Permute"
  bottom: "conv6_2_mbox_loc"
  top: "conv6_2_mbox_loc_perm"
  permute_param {
    order: 0
    order: 2
    order: 3
    order: 1
  }
}
layer {
  name: "conv6_2_mbox_loc_flat"
  type: "Flatten"
  bottom: "conv6_2_mbox_loc_perm"
  top: "conv6_2_mbox_loc_flat"
  flatten_param {
    axis: 1
  }
}
layer {
  name: "conv6_2_mbox_conf"
  type: "Convolution"
  bottom: "conv6_2"
  top: "conv6_2_mbox_conf"
  param {
    lr_mult: 1
    decay_mult: 1
  }
  param {
    lr_mult: 2
    decay_mult: 0
  }
  convolution_param {
    num_output: 126
    pad: 1
    kernel_size: 3
    stride: 1
    weight_filler {
      type: "xavier"
    }
    bias_filler {
      type: "constant"
      value: 0
    }
  }
}
layer {
  name: "conv6_2_mbox_conf_perm"
  type: "Permute"
  bottom: "conv6_2_mbox_conf"
  top: "conv6_2_mbox_conf_perm"
  permute_param {
    order: 0
    order: 2
    order: 3
    order: 1
  }
}
layer {
  name: "conv6_2_mbox_conf_flat"
  type: "Flatten"
  bottom: "conv6_2_mbox_conf_perm"
  top: "conv6_2_mbox_conf_flat"
  flatten_param {
    axis: 1
  }
}
layer {
  name: "conv6_2_mbox_priorbox"
  type: "PriorBox"
  bottom: "conv6_2"
  bottom: "data"
  top: "conv6_2_mbox_priorbox"
  prior_box_param {
    min_size: 111
    max_size: 162
    aspect_ratio: 2
    aspect_ratio: 3
    flip: true
    clip: false
    variance: 0.1
    variance: 0.1
    variance: 0.2
    variance: 0.2
    step: 32
    offset: 0.5
  }
}
layer {
  name: "conv7_2_mbox_loc"
  type: "Convolution"
  bottom: "conv7_2"
  top: "conv7_2_mbox_loc"
  param {
    lr_mult: 1
    decay_mult: 1
  }
  param {
    lr_mult: 2
    decay_mult: 0
  }
  convolution_param {
    num_output: 24
    pad: 1
    kernel_size: 3
    stride: 1
    weight_filler {
      type: "xavier"
    }
    bias_filler {
      type: "constant"
      value: 0
    }
  }
}
layer {
  name: "conv7_2_mbox_loc_perm"
  type: "Permute"
  bottom: "conv7_2_mbox_loc"
  top: "conv7_2_mbox_loc_perm"
  permute_param {
    order: 0
    order: 2
    order: 3
    order: 1
  }
}
layer {
  name: "conv7_2_mbox_loc_flat"
  type: "Flatten"
  bottom: "conv7_2_mbox_loc_perm"
  top: "conv7_2_mbox_loc_flat"
  flatten_param {
    axis: 1
  }
}
layer {
  name: "conv7_2_mbox_conf"
  type: "Convolution"
  bottom: "conv7_2"
  top: "conv7_2_mbox_conf"
  param {
    lr_mult: 1
    decay_mult: 1
  }
  param {
    lr_mult: 2
    decay_mult: 0
  }
  convolution_param {
    num_output: 126
    pad: 1
    kernel_size: 3
    stride: 1
    weight_filler {
      type: "xavier"
    }
    bias_filler {
      type: "constant"
      value: 0
    }
  }
}
layer {
  name: "conv7_2_mbox_conf_perm"
  type: "Permute"
  bottom: "conv7_2_mbox_conf"
  top: "conv7_2_mbox_conf_perm"
  permute_param {
    order: 0
    order: 2
    order: 3
    order: 1
  }
}
layer {
  name: "conv7_2_mbox_conf_flat"
  type: "Flatten"
  bottom: "conv7_2_mbox_conf_perm"
  top: "conv7_2_mbox_conf_flat"
  flatten_param {
    axis: 1
  }
}
layer {
  name: "conv7_2_mbox_priorbox"
  type: "PriorBox"
  bottom: "conv7_2"
  bottom: "data"
  top: "conv7_2_mbox_priorbox"
  prior_box_param {
    min_size: 162
    max_size: 213
    aspect_ratio: 2
    aspect_ratio: 3
    flip: true
    clip: false
    variance: 0.1
    variance: 0.1
    variance: 0.2
    variance: 0.2
    step: 64
    offset: 0.5
  }
}
layer {
  name: "conv8_2_mbox_loc"
  type: "Convolution"
  bottom: "conv8_2"
  top: "conv8_2_mbox_loc"
  param {
    lr_mult: 1
    decay_mult: 1
  }
  param {
    lr_mult: 2
    decay_mult: 0
  }
  convolution_param {
    num_output: 16
    pad: 1
    kernel_size: 3
    stride: 1
    weight_filler {
      type: "xavier"
    }
    bias_filler {
      type: "constant"
      value: 0
    }
  }
}
layer {
  name: "conv8_2_mbox_loc_perm"
  type: "Permute"
  bottom: "conv8_2_mbox_loc"
  top: "conv8_2_mbox_loc_perm"
  permute_param {
    order: 0
    order: 2
    order: 3
    order: 1
  }
}
layer {
  name: "conv8_2_mbox_loc_flat"
  type: "Flatten"
  bottom: "conv8_2_mbox_loc_perm"
  top: "conv8_2_mbox_loc_flat"
  flatten_param {
    axis: 1
  }
}
layer {
  name: "conv8_2_mbox_conf"
  type: "Convolution"
  bottom: "conv8_2"
  top: "conv8_2_mbox_conf"
  param {
    lr_mult: 1
    decay_mult: 1
  }
  param {
    lr_mult: 2
    decay_mult: 0
  }
  convolution_param {
    num_output: 84
    pad: 1
    kernel_size: 3
    stride: 1
    weight_filler {
      type: "xavier"
    }
    bias_filler {
      type: "constant"
      value: 0
    }
  }
}
layer {
  name: "conv8_2_mbox_conf_perm"
  type: "Permute"
  bottom: "conv8_2_mbox_conf"
  top: "conv8_2_mbox_conf_perm"
  permute_param {
    order: 0
    order: 2
    order: 3
    order: 1
  }
}
layer {
  name: "conv8_2_mbox_conf_flat"
  type: "Flatten"
  bottom: "conv8_2_mbox_conf_perm"
  top: "conv8_2_mbox_conf_flat"
  flatten_param {
    axis: 1
  }
}
layer {
  name: "conv8_2_mbox_priorbox"
  type: "PriorBox"
  bottom: "conv8_2"
  bottom: "data"
  top: "conv8_2_mbox_priorbox"
  prior_box_param {
    min_size: 213
    max_size: 264
    aspect_ratio: 2
    flip: true
    clip: false
    variance: 0.1
    variance: 0.1
    variance: 0.2
    variance: 0.2
    step: 100
    offset: 0.5
  }
}
layer {
  name: "conv9_2_mbox_loc"
  type: "Convolution"
  bottom: "conv9_2"
  top: "conv9_2_mbox_loc"
  param {
    lr_mult: 1
    decay_mult: 1
  }
  param {
    lr_mult: 2
    decay_mult: 0
  }
  convolution_param {
    num_output: 16
    pad: 1
    kernel_size: 3
    stride: 1
    weight_filler {
      type: "xavier"
    }
    bias_filler {
      type: "constant"
      value: 0
    }
  }
}
layer {
  name: "conv9_2_mbox_loc_perm"
  type: "Permute"
  bottom: "conv9_2_mbox_loc"
  top: "conv9_2_mbox_loc_perm"
  permute_param {
    order: 0
    order: 2
    order: 3
    order: 1
  }
}
layer {
  name: "conv9_2_mbox_loc_flat"
  type: "Flatten"
  bottom: "conv9_2_mbox_loc_perm"
  top: "conv9_2_mbox_loc_flat"
  flatten_param {
    axis: 1
  }
}
layer {
  name: "conv9_2_mbox_conf"
  type: "Convolution"
  bottom: "conv9_2"
  top: "conv9_2_mbox_conf"
  param {
    lr_mult: 1
    decay_mult: 1
  }
  param {
    lr_mult: 2
    decay_mult: 0
  }
  convolution_param {
    num_output: 84
    pad: 1
    kernel_size: 3
    stride: 1
    weight_filler {
      type: "xavier"
    }
    bias_filler {
      type: "constant"
      value: 0
    }
  }
}
layer {
  name: "conv9_2_mbox_conf_perm"
  type: "Permute"
  bottom: "conv9_2_mbox_conf"
  top: "conv9_2_mbox_conf_perm"
  permute_param {
    order: 0
    order: 2
    order: 3
    order: 1
  }
}
layer {
  name: "conv9_2_mbox_conf_flat"
  type: "Flatten"
  bottom: "conv9_2_mbox_conf_perm"
  top: "conv9_2_mbox_conf_flat"
  flatten_param {
    axis: 1
  }
}
layer {
  name: "conv9_2_mbox_priorbox"
  type: "PriorBox"
  bottom: "conv9_2"
  bottom: "data"
  top: "conv9_2_mbox_priorbox"
  prior_box_param {
    min_size: 264
    max_size: 315
    aspect_ratio: 2
    flip: true
    clip: false
    variance: 0.1
    variance: 0.1
    variance: 0.2
    variance: 0.2
    step: 300
    offset: 0.5
  }
}
layer {
  name: "mbox_loc"
  type: "Concat"
  bottom: "conv4_3_norm_mbox_loc_flat"
  bottom: "fc7_mbox_loc_flat"
  bottom: "conv6_2_mbox_loc_flat"
  bottom: "conv7_2_mbox_loc_flat"
  bottom: "conv8_2_mbox_loc_flat"
  bottom: "conv9_2_mbox_loc_flat"
  top: "mbox_loc"
  concat_param {
    axis: 1
  }
}
layer {
  name: "mbox_conf"
  type: "Concat"
  bottom: "conv4_3_norm_mbox_conf_flat"
  bottom: "fc7_mbox_conf_flat"
  bottom: "conv6_2_mbox_conf_flat"
  bottom: "conv7_2_mbox_conf_flat"
  bottom: "conv8_2_mbox_conf_flat"
  bottom: "conv9_2_mbox_conf_flat"
  top: "mbox_conf"
  concat_param {
    axis: 1
  }
}
layer {
  name: "mbox_priorbox"
  type: "Concat"
  bottom: "conv4_3_norm_mbox_priorbox"
  bottom: "fc7_mbox_priorbox"
  bottom: "conv6_2_mbox_priorbox"
  bottom: "conv7_2_mbox_priorbox"
  bottom: "conv8_2_mbox_priorbox"
  bottom: "conv9_2_mbox_priorbox"
  top: "mbox_priorbox"
  concat_param {
    axis: 2
  }
}
layer {
  name: "mbox_conf_reshape"
  type: "Reshape"
  bottom: "mbox_conf"
  top: "mbox_conf_reshape"
  reshape_param {
    shape {
      dim: 0
      dim: -1
      dim: 21
    }
  }
}
layer {
  name: "mbox_conf_softmax"
  type: "Softmax"
  bottom: "mbox_conf_reshape"
  top: "mbox_conf_softmax"
  softmax_param {
    axis: 2
  }
}
layer {
  name: "mbox_conf_flatten"
  type: "Flatten"
  bottom: "mbox_conf_softmax"
  top: "mbox_conf_flatten"
  flatten_param {
    axis: 1
  }
}
layer {
  name: "detection_out"
  type: "DetectionOutput"
  bottom: "mbox_loc"
  bottom: "mbox_conf_flatten"
  bottom: "mbox_priorbox"
  top: "detection_out"
  include {
    phase: TEST
  }
  detection_output_param {
    num_classes: 21
    share_location: true
    background_label_id: 0
    nms_param {
      nms_threshold: 0.45
      top_k: 400
    }
    save_output_param {
      output_directory: "/home/lenovo/data/VOCdevkit/results/VOC2007/SSD_300x300/Main"
      output_name_prefix: "comp4_det_test_"
      output_format: "VOC"
      label_map_file: "data/VOC0712/labelmap_voc.prototxt"
      name_size_file: "data/VOC0712/test_name_size.txt"
      num_test_image: 4952
    }
    code_type: CENTER_SIZE
    keep_top_k: 200
    confidence_threshold: 0.01
  }
}
layer {
  name: "detection_eval"
  type: "DetectionEvaluate"
  bottom: "detection_out"
  bottom: "label"
  top: "detection_eval"
  include {
    phase: TEST
  }
  detection_evaluate_param {
    num_classes: 21
    background_label_id: 0
    overlap_threshold: 0.5
    evaluate_difficult_gt: false
    name_size_file: "data/VOC0712/test_name_size.txt"
  }
}
I1110 22:36:27.799459 28591 layer_factory.hpp:77] Creating layer data
I1110 22:36:27.799553 28591 net.cpp:100] Creating Layer data
I1110 22:36:27.799562 28591 net.cpp:408] data -> data
I1110 22:36:27.799571 28591 net.cpp:408] data -> label
I1110 22:36:27.799981 28613 db_lmdb.cpp:35] Opened lmdb /media/lenovo/256G/ChenJ/VOCdevkit/VOC0712/lmdb/VOC0712_test_lmdb
I1110 22:36:27.801537 28591 annotated_data_layer.cpp:62] output data size: 8,3,300,300
I1110 22:36:27.810494 28591 net.cpp:150] Setting up data
I1110 22:36:27.810514 28591 net.cpp:157] Top shape: 8 3 300 300 (2160000)
I1110 22:36:27.810518 28591 net.cpp:157] Top shape: 1 1 2 8 (16)
I1110 22:36:27.810521 28591 net.cpp:165] Memory required for data: 8640064
I1110 22:36:27.810525 28591 layer_factory.hpp:77] Creating layer data_data_0_split
I1110 22:36:27.810536 28591 net.cpp:100] Creating Layer data_data_0_split
I1110 22:36:27.810540 28591 net.cpp:434] data_data_0_split <- data
I1110 22:36:27.810546 28591 net.cpp:408] data_data_0_split -> data_data_0_split_0
I1110 22:36:27.810555 28591 net.cpp:408] data_data_0_split -> data_data_0_split_1
I1110 22:36:27.810561 28591 net.cpp:408] data_data_0_split -> data_data_0_split_2
I1110 22:36:27.810566 28591 net.cpp:408] data_data_0_split -> data_data_0_split_3
I1110 22:36:27.810572 28591 net.cpp:408] data_data_0_split -> data_data_0_split_4
I1110 22:36:27.810576 28591 net.cpp:408] data_data_0_split -> data_data_0_split_5
I1110 22:36:27.810581 28591 net.cpp:408] data_data_0_split -> data_data_0_split_6
I1110 22:36:27.810683 28591 net.cpp:150] Setting up data_data_0_split
I1110 22:36:27.810688 28591 net.cpp:157] Top shape: 8 3 300 300 (2160000)
I1110 22:36:27.810691 28591 net.cpp:157] Top shape: 8 3 300 300 (2160000)
I1110 22:36:27.810694 28591 net.cpp:157] Top shape: 8 3 300 300 (2160000)
I1110 22:36:27.810698 28591 net.cpp:157] Top shape: 8 3 300 300 (2160000)
I1110 22:36:27.810699 28591 net.cpp:157] Top shape: 8 3 300 300 (2160000)
I1110 22:36:27.810714 28591 net.cpp:157] Top shape: 8 3 300 300 (2160000)
I1110 22:36:27.810717 28591 net.cpp:157] Top shape: 8 3 300 300 (2160000)
I1110 22:36:27.810720 28591 net.cpp:165] Memory required for data: 69120064
I1110 22:36:27.810722 28591 layer_factory.hpp:77] Creating layer conv1_1
I1110 22:36:27.810731 28591 net.cpp:100] Creating Layer conv1_1
I1110 22:36:27.810735 28591 net.cpp:434] conv1_1 <- data_data_0_split_0
I1110 22:36:27.810739 28591 net.cpp:408] conv1_1 -> conv1_1
I1110 22:36:27.811718 28591 net.cpp:150] Setting up conv1_1
I1110 22:36:27.811728 28591 net.cpp:157] Top shape: 8 64 300 300 (46080000)
I1110 22:36:27.811730 28591 net.cpp:165] Memory required for data: 253440064
I1110 22:36:27.811738 28591 layer_factory.hpp:77] Creating layer relu1_1
I1110 22:36:27.811744 28591 net.cpp:100] Creating Layer relu1_1
I1110 22:36:27.811748 28591 net.cpp:434] relu1_1 <- conv1_1
I1110 22:36:27.811753 28591 net.cpp:395] relu1_1 -> conv1_1 (in-place)
I1110 22:36:27.811874 28591 net.cpp:150] Setting up relu1_1
I1110 22:36:27.811880 28591 net.cpp:157] Top shape: 8 64 300 300 (46080000)
I1110 22:36:27.811882 28591 net.cpp:165] Memory required for data: 437760064
I1110 22:36:27.811885 28591 layer_factory.hpp:77] Creating layer conv1_2
I1110 22:36:27.811894 28591 net.cpp:100] Creating Layer conv1_2
I1110 22:36:27.811897 28591 net.cpp:434] conv1_2 <- conv1_1
I1110 22:36:27.811902 28591 net.cpp:408] conv1_2 -> conv1_2
I1110 22:36:27.813554 28591 net.cpp:150] Setting up conv1_2
I1110 22:36:27.813561 28591 net.cpp:157] Top shape: 8 64 300 300 (46080000)
I1110 22:36:27.813565 28591 net.cpp:165] Memory required for data: 622080064
I1110 22:36:27.813570 28591 layer_factory.hpp:77] Creating layer relu1_2
I1110 22:36:27.813575 28591 net.cpp:100] Creating Layer relu1_2
I1110 22:36:27.813578 28591 net.cpp:434] relu1_2 <- conv1_2
I1110 22:36:27.813581 28591 net.cpp:395] relu1_2 -> conv1_2 (in-place)
I1110 22:36:27.813696 28591 net.cpp:150] Setting up relu1_2
I1110 22:36:27.813704 28591 net.cpp:157] Top shape: 8 64 300 300 (46080000)
I1110 22:36:27.813705 28591 net.cpp:165] Memory required for data: 806400064
I1110 22:36:27.813709 28591 layer_factory.hpp:77] Creating layer pool1
I1110 22:36:27.813712 28591 net.cpp:100] Creating Layer pool1
I1110 22:36:27.813716 28591 net.cpp:434] pool1 <- conv1_2
I1110 22:36:27.813720 28591 net.cpp:408] pool1 -> pool1
I1110 22:36:27.813750 28591 net.cpp:150] Setting up pool1
I1110 22:36:27.813755 28591 net.cpp:157] Top shape: 8 64 150 150 (11520000)
I1110 22:36:27.813758 28591 net.cpp:165] Memory required for data: 852480064
I1110 22:36:27.813760 28591 layer_factory.hpp:77] Creating layer conv2_1
I1110 22:36:27.813766 28591 net.cpp:100] Creating Layer conv2_1
I1110 22:36:27.813769 28591 net.cpp:434] conv2_1 <- pool1
I1110 22:36:27.813773 28591 net.cpp:408] conv2_1 -> conv2_1
I1110 22:36:27.814827 28591 net.cpp:150] Setting up conv2_1
I1110 22:36:27.814836 28591 net.cpp:157] Top shape: 8 128 150 150 (23040000)
I1110 22:36:27.814838 28591 net.cpp:165] Memory required for data: 944640064
I1110 22:36:27.814844 28591 layer_factory.hpp:77] Creating layer relu2_1
I1110 22:36:27.814851 28591 net.cpp:100] Creating Layer relu2_1
I1110 22:36:27.814853 28591 net.cpp:434] relu2_1 <- conv2_1
I1110 22:36:27.814857 28591 net.cpp:395] relu2_1 -> conv2_1 (in-place)
I1110 22:36:27.814970 28591 net.cpp:150] Setting up relu2_1
I1110 22:36:27.814975 28591 net.cpp:157] Top shape: 8 128 150 150 (23040000)
I1110 22:36:27.814978 28591 net.cpp:165] Memory required for data: 1036800064
I1110 22:36:27.814980 28591 layer_factory.hpp:77] Creating layer conv2_2
I1110 22:36:27.814986 28591 net.cpp:100] Creating Layer conv2_2
I1110 22:36:27.814990 28591 net.cpp:434] conv2_2 <- conv2_1
I1110 22:36:27.814994 28591 net.cpp:408] conv2_2 -> conv2_2
I1110 22:36:27.816542 28591 net.cpp:150] Setting up conv2_2
I1110 22:36:27.816550 28591 net.cpp:157] Top shape: 8 128 150 150 (23040000)
I1110 22:36:27.816553 28591 net.cpp:165] Memory required for data: 1128960064
I1110 22:36:27.816558 28591 layer_factory.hpp:77] Creating layer relu2_2
I1110 22:36:27.816562 28591 net.cpp:100] Creating Layer relu2_2
I1110 22:36:27.816573 28591 net.cpp:434] relu2_2 <- conv2_2
I1110 22:36:27.816578 28591 net.cpp:395] relu2_2 -> conv2_2 (in-place)
I1110 22:36:27.816699 28591 net.cpp:150] Setting up relu2_2
I1110 22:36:27.816705 28591 net.cpp:157] Top shape: 8 128 150 150 (23040000)
I1110 22:36:27.816707 28591 net.cpp:165] Memory required for data: 1221120064
I1110 22:36:27.816710 28591 layer_factory.hpp:77] Creating layer pool2
I1110 22:36:27.816715 28591 net.cpp:100] Creating Layer pool2
I1110 22:36:27.816716 28591 net.cpp:434] pool2 <- conv2_2
I1110 22:36:27.816720 28591 net.cpp:408] pool2 -> pool2
I1110 22:36:27.816753 28591 net.cpp:150] Setting up pool2
I1110 22:36:27.816757 28591 net.cpp:157] Top shape: 8 128 75 75 (5760000)
I1110 22:36:27.816759 28591 net.cpp:165] Memory required for data: 1244160064
I1110 22:36:27.816762 28591 layer_factory.hpp:77] Creating layer conv3_1
I1110 22:36:27.816767 28591 net.cpp:100] Creating Layer conv3_1
I1110 22:36:27.816771 28591 net.cpp:434] conv3_1 <- pool2
I1110 22:36:27.816776 28591 net.cpp:408] conv3_1 -> conv3_1
I1110 22:36:27.819474 28591 net.cpp:150] Setting up conv3_1
I1110 22:36:27.819485 28591 net.cpp:157] Top shape: 8 256 75 75 (11520000)
I1110 22:36:27.819489 28591 net.cpp:165] Memory required for data: 1290240064
I1110 22:36:27.819497 28591 layer_factory.hpp:77] Creating layer relu3_1
I1110 22:36:27.819504 28591 net.cpp:100] Creating Layer relu3_1
I1110 22:36:27.819507 28591 net.cpp:434] relu3_1 <- conv3_1
I1110 22:36:27.819512 28591 net.cpp:395] relu3_1 -> conv3_1 (in-place)
I1110 22:36:27.819911 28591 net.cpp:150] Setting up relu3_1
I1110 22:36:27.819919 28591 net.cpp:157] Top shape: 8 256 75 75 (11520000)
I1110 22:36:27.819922 28591 net.cpp:165] Memory required for data: 1336320064
I1110 22:36:27.819926 28591 layer_factory.hpp:77] Creating layer conv3_2
I1110 22:36:27.819933 28591 net.cpp:100] Creating Layer conv3_2
I1110 22:36:27.819937 28591 net.cpp:434] conv3_2 <- conv3_1
I1110 22:36:27.819942 28591 net.cpp:408] conv3_2 -> conv3_2
I1110 22:36:27.823750 28591 net.cpp:150] Setting up conv3_2
I1110 22:36:27.823762 28591 net.cpp:157] Top shape: 8 256 75 75 (11520000)
I1110 22:36:27.823765 28591 net.cpp:165] Memory required for data: 1382400064
I1110 22:36:27.823771 28591 layer_factory.hpp:77] Creating layer relu3_2
I1110 22:36:27.823778 28591 net.cpp:100] Creating Layer relu3_2
I1110 22:36:27.823782 28591 net.cpp:434] relu3_2 <- conv3_2
I1110 22:36:27.823787 28591 net.cpp:395] relu3_2 -> conv3_2 (in-place)
I1110 22:36:27.823920 28591 net.cpp:150] Setting up relu3_2
I1110 22:36:27.823927 28591 net.cpp:157] Top shape: 8 256 75 75 (11520000)
I1110 22:36:27.823930 28591 net.cpp:165] Memory required for data: 1428480064
I1110 22:36:27.823932 28591 layer_factory.hpp:77] Creating layer conv3_3
I1110 22:36:27.823943 28591 net.cpp:100] Creating Layer conv3_3
I1110 22:36:27.823947 28591 net.cpp:434] conv3_3 <- conv3_2
I1110 22:36:27.823952 28591 net.cpp:408] conv3_3 -> conv3_3
I1110 22:36:27.828380 28591 net.cpp:150] Setting up conv3_3
I1110 22:36:27.828393 28591 net.cpp:157] Top shape: 8 256 75 75 (11520000)
I1110 22:36:27.828397 28591 net.cpp:165] Memory required for data: 1474560064
I1110 22:36:27.828402 28591 layer_factory.hpp:77] Creating layer relu3_3
I1110 22:36:27.828408 28591 net.cpp:100] Creating Layer relu3_3
I1110 22:36:27.828413 28591 net.cpp:434] relu3_3 <- conv3_3
I1110 22:36:27.828418 28591 net.cpp:395] relu3_3 -> conv3_3 (in-place)
I1110 22:36:27.828548 28591 net.cpp:150] Setting up relu3_3
I1110 22:36:27.828554 28591 net.cpp:157] Top shape: 8 256 75 75 (11520000)
I1110 22:36:27.828557 28591 net.cpp:165] Memory required for data: 1520640064
I1110 22:36:27.828559 28591 layer_factory.hpp:77] Creating layer pool3
I1110 22:36:27.828564 28591 net.cpp:100] Creating Layer pool3
I1110 22:36:27.828567 28591 net.cpp:434] pool3 <- conv3_3
I1110 22:36:27.828572 28591 net.cpp:408] pool3 -> pool3
I1110 22:36:27.828608 28591 net.cpp:150] Setting up pool3
I1110 22:36:27.828613 28591 net.cpp:157] Top shape: 8 256 38 38 (2957312)
I1110 22:36:27.828614 28591 net.cpp:165] Memory required for data: 1532469312
I1110 22:36:27.828625 28591 layer_factory.hpp:77] Creating layer conv4_1
I1110 22:36:27.828634 28591 net.cpp:100] Creating Layer conv4_1
I1110 22:36:27.828636 28591 net.cpp:434] conv4_1 <- pool3
I1110 22:36:27.828640 28591 net.cpp:408] conv4_1 -> conv4_1
I1110 22:36:27.834987 28591 net.cpp:150] Setting up conv4_1
I1110 22:36:27.835003 28591 net.cpp:157] Top shape: 8 512 38 38 (5914624)
I1110 22:36:27.835006 28591 net.cpp:165] Memory required for data: 1556127808
I1110 22:36:27.835013 28591 layer_factory.hpp:77] Creating layer relu4_1
I1110 22:36:27.835021 28591 net.cpp:100] Creating Layer relu4_1
I1110 22:36:27.835024 28591 net.cpp:434] relu4_1 <- conv4_1
I1110 22:36:27.835031 28591 net.cpp:395] relu4_1 -> conv4_1 (in-place)
I1110 22:36:27.835160 28591 net.cpp:150] Setting up relu4_1
I1110 22:36:27.835167 28591 net.cpp:157] Top shape: 8 512 38 38 (5914624)
I1110 22:36:27.835170 28591 net.cpp:165] Memory required for data: 1579786304
I1110 22:36:27.835172 28591 layer_factory.hpp:77] Creating layer conv4_2
I1110 22:36:27.835180 28591 net.cpp:100] Creating Layer conv4_2
I1110 22:36:27.835183 28591 net.cpp:434] conv4_2 <- conv4_1
I1110 22:36:27.835188 28591 net.cpp:408] conv4_2 -> conv4_2
I1110 22:36:27.846010 28591 net.cpp:150] Setting up conv4_2
I1110 22:36:27.846026 28591 net.cpp:157] Top shape: 8 512 38 38 (5914624)
I1110 22:36:27.846029 28591 net.cpp:165] Memory required for data: 1603444800
I1110 22:36:27.846040 28591 layer_factory.hpp:77] Creating layer relu4_2
I1110 22:36:27.846047 28591 net.cpp:100] Creating Layer relu4_2
I1110 22:36:27.846051 28591 net.cpp:434] relu4_2 <- conv4_2
I1110 22:36:27.846057 28591 net.cpp:395] relu4_2 -> conv4_2 (in-place)
I1110 22:36:27.846182 28591 net.cpp:150] Setting up relu4_2
I1110 22:36:27.846189 28591 net.cpp:157] Top shape: 8 512 38 38 (5914624)
I1110 22:36:27.846190 28591 net.cpp:165] Memory required for data: 1627103296
I1110 22:36:27.846194 28591 layer_factory.hpp:77] Creating layer conv4_3
I1110 22:36:27.846200 28591 net.cpp:100] Creating Layer conv4_3
I1110 22:36:27.846204 28591 net.cpp:434] conv4_3 <- conv4_2
I1110 22:36:27.846210 28591 net.cpp:408] conv4_3 -> conv4_3
I1110 22:36:27.857089 28591 net.cpp:150] Setting up conv4_3
I1110 22:36:27.857105 28591 net.cpp:157] Top shape: 8 512 38 38 (5914624)
I1110 22:36:27.857108 28591 net.cpp:165] Memory required for data: 1650761792
I1110 22:36:27.857115 28591 layer_factory.hpp:77] Creating layer relu4_3
I1110 22:36:27.857121 28591 net.cpp:100] Creating Layer relu4_3
I1110 22:36:27.857125 28591 net.cpp:434] relu4_3 <- conv4_3
I1110 22:36:27.857132 28591 net.cpp:395] relu4_3 -> conv4_3 (in-place)
I1110 22:36:27.857259 28591 net.cpp:150] Setting up relu4_3
I1110 22:36:27.857264 28591 net.cpp:157] Top shape: 8 512 38 38 (5914624)
I1110 22:36:27.857266 28591 net.cpp:165] Memory required for data: 1674420288
I1110 22:36:27.857270 28591 layer_factory.hpp:77] Creating layer conv4_3_relu4_3_0_split
I1110 22:36:27.857273 28591 net.cpp:100] Creating Layer conv4_3_relu4_3_0_split
I1110 22:36:27.857276 28591 net.cpp:434] conv4_3_relu4_3_0_split <- conv4_3
I1110 22:36:27.857280 28591 net.cpp:408] conv4_3_relu4_3_0_split -> conv4_3_relu4_3_0_split_0
I1110 22:36:27.857287 28591 net.cpp:408] conv4_3_relu4_3_0_split -> conv4_3_relu4_3_0_split_1
I1110 22:36:27.857321 28591 net.cpp:150] Setting up conv4_3_relu4_3_0_split
I1110 22:36:27.857326 28591 net.cpp:157] Top shape: 8 512 38 38 (5914624)
I1110 22:36:27.857328 28591 net.cpp:157] Top shape: 8 512 38 38 (5914624)
I1110 22:36:27.857331 28591 net.cpp:165] Memory required for data: 1721737280
I1110 22:36:27.857333 28591 layer_factory.hpp:77] Creating layer pool4
I1110 22:36:27.857338 28591 net.cpp:100] Creating Layer pool4
I1110 22:36:27.857342 28591 net.cpp:434] pool4 <- conv4_3_relu4_3_0_split_0
I1110 22:36:27.857345 28591 net.cpp:408] pool4 -> pool4
I1110 22:36:27.857376 28591 net.cpp:150] Setting up pool4
I1110 22:36:27.857381 28591 net.cpp:157] Top shape: 8 512 19 19 (1478656)
I1110 22:36:27.857383 28591 net.cpp:165] Memory required for data: 1727651904
I1110 22:36:27.857394 28591 layer_factory.hpp:77] Creating layer conv5_1
I1110 22:36:27.857403 28591 net.cpp:100] Creating Layer conv5_1
I1110 22:36:27.857405 28591 net.cpp:434] conv5_1 <- pool4
I1110 22:36:27.857410 28591 net.cpp:408] conv5_1 -> conv5_1
I1110 22:36:27.868327 28591 net.cpp:150] Setting up conv5_1
I1110 22:36:27.868343 28591 net.cpp:157] Top shape: 8 512 19 19 (1478656)
I1110 22:36:27.868346 28591 net.cpp:165] Memory required for data: 1733566528
I1110 22:36:27.868355 28591 layer_factory.hpp:77] Creating layer relu5_1
I1110 22:36:27.868361 28591 net.cpp:100] Creating Layer relu5_1
I1110 22:36:27.868366 28591 net.cpp:434] relu5_1 <- conv5_1
I1110 22:36:27.868372 28591 net.cpp:395] relu5_1 -> conv5_1 (in-place)
I1110 22:36:27.868789 28591 net.cpp:150] Setting up relu5_1
I1110 22:36:27.868798 28591 net.cpp:157] Top shape: 8 512 19 19 (1478656)
I1110 22:36:27.868800 28591 net.cpp:165] Memory required for data: 1739481152
I1110 22:36:27.868803 28591 layer_factory.hpp:77] Creating layer conv5_2
I1110 22:36:27.868811 28591 net.cpp:100] Creating Layer conv5_2
I1110 22:36:27.868814 28591 net.cpp:434] conv5_2 <- conv5_1
I1110 22:36:27.868820 28591 net.cpp:408] conv5_2 -> conv5_2
I1110 22:36:27.880589 28591 net.cpp:150] Setting up conv5_2
I1110 22:36:27.880604 28591 net.cpp:157] Top shape: 8 512 19 19 (1478656)
I1110 22:36:27.880607 28591 net.cpp:165] Memory required for data: 1745395776
I1110 22:36:27.880614 28591 layer_factory.hpp:77] Creating layer relu5_2
I1110 22:36:27.880621 28591 net.cpp:100] Creating Layer relu5_2
I1110 22:36:27.880625 28591 net.cpp:434] relu5_2 <- conv5_2
I1110 22:36:27.880630 28591 net.cpp:395] relu5_2 -> conv5_2 (in-place)
I1110 22:36:27.880754 28591 net.cpp:150] Setting up relu5_2
I1110 22:36:27.880760 28591 net.cpp:157] Top shape: 8 512 19 19 (1478656)
I1110 22:36:27.880764 28591 net.cpp:165] Memory required for data: 1751310400
I1110 22:36:27.880765 28591 layer_factory.hpp:77] Creating layer conv5_3
I1110 22:36:27.880772 28591 net.cpp:100] Creating Layer conv5_3
I1110 22:36:27.880776 28591 net.cpp:434] conv5_3 <- conv5_2
I1110 22:36:27.880781 28591 net.cpp:408] conv5_3 -> conv5_3
I1110 22:36:27.891834 28591 net.cpp:150] Setting up conv5_3
I1110 22:36:27.891849 28591 net.cpp:157] Top shape: 8 512 19 19 (1478656)
I1110 22:36:27.891852 28591 net.cpp:165] Memory required for data: 1757225024
I1110 22:36:27.891860 28591 layer_factory.hpp:77] Creating layer relu5_3
I1110 22:36:27.891870 28591 net.cpp:100] Creating Layer relu5_3
I1110 22:36:27.891875 28591 net.cpp:434] relu5_3 <- conv5_3
I1110 22:36:27.891880 28591 net.cpp:395] relu5_3 -> conv5_3 (in-place)
I1110 22:36:27.892004 28591 net.cpp:150] Setting up relu5_3
I1110 22:36:27.892010 28591 net.cpp:157] Top shape: 8 512 19 19 (1478656)
I1110 22:36:27.892012 28591 net.cpp:165] Memory required for data: 1763139648
I1110 22:36:27.892015 28591 layer_factory.hpp:77] Creating layer pool5
I1110 22:36:27.892020 28591 net.cpp:100] Creating Layer pool5
I1110 22:36:27.892022 28591 net.cpp:434] pool5 <- conv5_3
I1110 22:36:27.892027 28591 net.cpp:408] pool5 -> pool5
I1110 22:36:27.892062 28591 net.cpp:150] Setting up pool5
I1110 22:36:27.892068 28591 net.cpp:157] Top shape: 8 512 19 19 (1478656)
I1110 22:36:27.892071 28591 net.cpp:165] Memory required for data: 1769054272
I1110 22:36:27.892072 28591 layer_factory.hpp:77] Creating layer fc6
I1110 22:36:27.892079 28591 net.cpp:100] Creating Layer fc6
I1110 22:36:27.892082 28591 net.cpp:434] fc6 <- pool5
I1110 22:36:27.892087 28591 net.cpp:408] fc6 -> fc6
I1110 22:36:27.911619 28591 net.cpp:150] Setting up fc6
I1110 22:36:27.911639 28591 net.cpp:157] Top shape: 8 1024 19 19 (2957312)
I1110 22:36:27.911643 28591 net.cpp:165] Memory required for data: 1780883520
I1110 22:36:27.911648 28591 layer_factory.hpp:77] Creating layer relu6
I1110 22:36:27.911654 28591 net.cpp:100] Creating Layer relu6
I1110 22:36:27.911658 28591 net.cpp:434] relu6 <- fc6
I1110 22:36:27.911662 28591 net.cpp:395] relu6 -> fc6 (in-place)
I1110 22:36:27.911845 28591 net.cpp:150] Setting up relu6
I1110 22:36:27.911851 28591 net.cpp:157] Top shape: 8 1024 19 19 (2957312)
I1110 22:36:27.911864 28591 net.cpp:165] Memory required for data: 1792712768
I1110 22:36:27.911866 28591 layer_factory.hpp:77] Creating layer fc7
I1110 22:36:27.911875 28591 net.cpp:100] Creating Layer fc7
I1110 22:36:27.911878 28591 net.cpp:434] fc7 <- fc6
I1110 22:36:27.911882 28591 net.cpp:408] fc7 -> fc7
I1110 22:36:27.918807 28591 net.cpp:150] Setting up fc7
I1110 22:36:27.918830 28591 net.cpp:157] Top shape: 8 1024 19 19 (2957312)
I1110 22:36:27.918834 28591 net.cpp:165] Memory required for data: 1804542016
I1110 22:36:27.918841 28591 layer_factory.hpp:77] Creating layer relu7
I1110 22:36:27.918848 28591 net.cpp:100] Creating Layer relu7
I1110 22:36:27.918853 28591 net.cpp:434] relu7 <- fc7
I1110 22:36:27.918857 28591 net.cpp:395] relu7 -> fc7 (in-place)
I1110 22:36:27.918983 28591 net.cpp:150] Setting up relu7
I1110 22:36:27.918990 28591 net.cpp:157] Top shape: 8 1024 19 19 (2957312)
I1110 22:36:27.918992 28591 net.cpp:165] Memory required for data: 1816371264
I1110 22:36:27.918994 28591 layer_factory.hpp:77] Creating layer fc7_relu7_0_split
I1110 22:36:27.918999 28591 net.cpp:100] Creating Layer fc7_relu7_0_split
I1110 22:36:27.919004 28591 net.cpp:434] fc7_relu7_0_split <- fc7
I1110 22:36:27.919008 28591 net.cpp:408] fc7_relu7_0_split -> fc7_relu7_0_split_0
I1110 22:36:27.919015 28591 net.cpp:408] fc7_relu7_0_split -> fc7_relu7_0_split_1
I1110 22:36:27.919024 28591 net.cpp:408] fc7_relu7_0_split -> fc7_relu7_0_split_2
I1110 22:36:27.919031 28591 net.cpp:408] fc7_relu7_0_split -> fc7_relu7_0_split_3
I1110 22:36:27.919087 28591 net.cpp:150] Setting up fc7_relu7_0_split
I1110 22:36:27.919092 28591 net.cpp:157] Top shape: 8 1024 19 19 (2957312)
I1110 22:36:27.919095 28591 net.cpp:157] Top shape: 8 1024 19 19 (2957312)
I1110 22:36:27.919098 28591 net.cpp:157] Top shape: 8 1024 19 19 (2957312)
I1110 22:36:27.919101 28591 net.cpp:157] Top shape: 8 1024 19 19 (2957312)
I1110 22:36:27.919103 28591 net.cpp:165] Memory required for data: 1863688256
I1110 22:36:27.919106 28591 layer_factory.hpp:77] Creating layer conv6_1
I1110 22:36:27.919114 28591 net.cpp:100] Creating Layer conv6_1
I1110 22:36:27.919117 28591 net.cpp:434] conv6_1 <- fc7_relu7_0_split_0
I1110 22:36:27.919122 28591 net.cpp:408] conv6_1 -> conv6_1
I1110 22:36:27.921869 28591 net.cpp:150] Setting up conv6_1
I1110 22:36:27.921880 28591 net.cpp:157] Top shape: 8 256 19 19 (739328)
I1110 22:36:27.921882 28591 net.cpp:165] Memory required for data: 1866645568
I1110 22:36:27.921887 28591 layer_factory.hpp:77] Creating layer conv6_1_relu
I1110 22:36:27.921892 28591 net.cpp:100] Creating Layer conv6_1_relu
I1110 22:36:27.921896 28591 net.cpp:434] conv6_1_relu <- conv6_1
I1110 22:36:27.921901 28591 net.cpp:395] conv6_1_relu -> conv6_1 (in-place)
I1110 22:36:27.922319 28591 net.cpp:150] Setting up conv6_1_relu
I1110 22:36:27.922327 28591 net.cpp:157] Top shape: 8 256 19 19 (739328)
I1110 22:36:27.922330 28591 net.cpp:165] Memory required for data: 1869602880
I1110 22:36:27.922333 28591 layer_factory.hpp:77] Creating layer conv6_2
I1110 22:36:27.922340 28591 net.cpp:100] Creating Layer conv6_2
I1110 22:36:27.922344 28591 net.cpp:434] conv6_2 <- conv6_1
I1110 22:36:27.922350 28591 net.cpp:408] conv6_2 -> conv6_2
I1110 22:36:27.928822 28591 net.cpp:150] Setting up conv6_2
I1110 22:36:27.928838 28591 net.cpp:157] Top shape: 8 512 10 10 (409600)
I1110 22:36:27.928840 28591 net.cpp:165] Memory required for data: 1871241280
I1110 22:36:27.928853 28591 layer_factory.hpp:77] Creating layer conv6_2_relu
I1110 22:36:27.928859 28591 net.cpp:100] Creating Layer conv6_2_relu
I1110 22:36:27.928864 28591 net.cpp:434] conv6_2_relu <- conv6_2
I1110 22:36:27.928867 28591 net.cpp:395] conv6_2_relu -> conv6_2 (in-place)
I1110 22:36:27.929353 28591 net.cpp:150] Setting up conv6_2_relu
I1110 22:36:27.929363 28591 net.cpp:157] Top shape: 8 512 10 10 (409600)
I1110 22:36:27.929364 28591 net.cpp:165] Memory required for data: 1872879680
I1110 22:36:27.929368 28591 layer_factory.hpp:77] Creating layer conv6_2_conv6_2_relu_0_split
I1110 22:36:27.929383 28591 net.cpp:100] Creating Layer conv6_2_conv6_2_relu_0_split
I1110 22:36:27.929386 28591 net.cpp:434] conv6_2_conv6_2_relu_0_split <- conv6_2
I1110 22:36:27.929394 28591 net.cpp:408] conv6_2_conv6_2_relu_0_split -> conv6_2_conv6_2_relu_0_split_0
I1110 22:36:27.929399 28591 net.cpp:408] conv6_2_conv6_2_relu_0_split -> conv6_2_conv6_2_relu_0_split_1
I1110 22:36:27.929405 28591 net.cpp:408] conv6_2_conv6_2_relu_0_split -> conv6_2_conv6_2_relu_0_split_2
I1110 22:36:27.929409 28591 net.cpp:408] conv6_2_conv6_2_relu_0_split -> conv6_2_conv6_2_relu_0_split_3
I1110 22:36:27.929472 28591 net.cpp:150] Setting up conv6_2_conv6_2_relu_0_split
I1110 22:36:27.929476 28591 net.cpp:157] Top shape: 8 512 10 10 (409600)
I1110 22:36:27.929481 28591 net.cpp:157] Top shape: 8 512 10 10 (409600)
I1110 22:36:27.929482 28591 net.cpp:157] Top shape: 8 512 10 10 (409600)
I1110 22:36:27.929486 28591 net.cpp:157] Top shape: 8 512 10 10 (409600)
I1110 22:36:27.929487 28591 net.cpp:165] Memory required for data: 1879433280
I1110 22:36:27.929491 28591 layer_factory.hpp:77] Creating layer conv7_1
I1110 22:36:27.929497 28591 net.cpp:100] Creating Layer conv7_1
I1110 22:36:27.929500 28591 net.cpp:434] conv7_1 <- conv6_2_conv6_2_relu_0_split_0
I1110 22:36:27.929507 28591 net.cpp:408] conv7_1 -> conv7_1
I1110 22:36:27.930938 28591 net.cpp:150] Setting up conv7_1
I1110 22:36:27.930963 28591 net.cpp:157] Top shape: 8 128 10 10 (102400)
I1110 22:36:27.930974 28591 net.cpp:165] Memory required for data: 1879842880
I1110 22:36:27.930979 28591 layer_factory.hpp:77] Creating layer conv7_1_relu
I1110 22:36:27.930984 28591 net.cpp:100] Creating Layer conv7_1_relu
I1110 22:36:27.930987 28591 net.cpp:434] conv7_1_relu <- conv7_1
I1110 22:36:27.930991 28591 net.cpp:395] conv7_1_relu -> conv7_1 (in-place)
I1110 22:36:27.931118 28591 net.cpp:150] Setting up conv7_1_relu
I1110 22:36:27.931124 28591 net.cpp:157] Top shape: 8 128 10 10 (102400)
I1110 22:36:27.931126 28591 net.cpp:165] Memory required for data: 1880252480
I1110 22:36:27.931129 28591 layer_factory.hpp:77] Creating layer conv7_2
I1110 22:36:27.931135 28591 net.cpp:100] Creating Layer conv7_2
I1110 22:36:27.931138 28591 net.cpp:434] conv7_2 <- conv7_1
I1110 22:36:27.931143 28591 net.cpp:408] conv7_2 -> conv7_2
I1110 22:36:27.933663 28591 net.cpp:150] Setting up conv7_2
I1110 22:36:27.933673 28591 net.cpp:157] Top shape: 8 256 5 5 (51200)
I1110 22:36:27.933676 28591 net.cpp:165] Memory required for data: 1880457280
I1110 22:36:27.933682 28591 layer_factory.hpp:77] Creating layer conv7_2_relu
I1110 22:36:27.933686 28591 net.cpp:100] Creating Layer conv7_2_relu
I1110 22:36:27.933689 28591 net.cpp:434] conv7_2_relu <- conv7_2
I1110 22:36:27.933694 28591 net.cpp:395] conv7_2_relu -> conv7_2 (in-place)
I1110 22:36:27.933821 28591 net.cpp:150] Setting up conv7_2_relu
I1110 22:36:27.933827 28591 net.cpp:157] Top shape: 8 256 5 5 (51200)
I1110 22:36:27.933830 28591 net.cpp:165] Memory required for data: 1880662080
I1110 22:36:27.933832 28591 layer_factory.hpp:77] Creating layer conv7_2_conv7_2_relu_0_split
I1110 22:36:27.933837 28591 net.cpp:100] Creating Layer conv7_2_conv7_2_relu_0_split
I1110 22:36:27.933840 28591 net.cpp:434] conv7_2_conv7_2_relu_0_split <- conv7_2
I1110 22:36:27.933845 28591 net.cpp:408] conv7_2_conv7_2_relu_0_split -> conv7_2_conv7_2_relu_0_split_0
I1110 22:36:27.933851 28591 net.cpp:408] conv7_2_conv7_2_relu_0_split -> conv7_2_conv7_2_relu_0_split_1
I1110 22:36:27.933856 28591 net.cpp:408] conv7_2_conv7_2_relu_0_split -> conv7_2_conv7_2_relu_0_split_2
I1110 22:36:27.933861 28591 net.cpp:408] conv7_2_conv7_2_relu_0_split -> conv7_2_conv7_2_relu_0_split_3
I1110 22:36:27.933917 28591 net.cpp:150] Setting up conv7_2_conv7_2_relu_0_split
I1110 22:36:27.933923 28591 net.cpp:157] Top shape: 8 256 5 5 (51200)
I1110 22:36:27.933925 28591 net.cpp:157] Top shape: 8 256 5 5 (51200)
I1110 22:36:27.933928 28591 net.cpp:157] Top shape: 8 256 5 5 (51200)
I1110 22:36:27.933930 28591 net.cpp:157] Top shape: 8 256 5 5 (51200)
I1110 22:36:27.933933 28591 net.cpp:165] Memory required for data: 1881481280
I1110 22:36:27.933943 28591 layer_factory.hpp:77] Creating layer conv8_1
I1110 22:36:27.933953 28591 net.cpp:100] Creating Layer conv8_1
I1110 22:36:27.933955 28591 net.cpp:434] conv8_1 <- conv7_2_conv7_2_relu_0_split_0
I1110 22:36:27.933960 28591 net.cpp:408] conv8_1 -> conv8_1
I1110 22:36:27.934979 28591 net.cpp:150] Setting up conv8_1
I1110 22:36:27.934988 28591 net.cpp:157] Top shape: 8 128 5 5 (25600)
I1110 22:36:27.934991 28591 net.cpp:165] Memory required for data: 1881583680
I1110 22:36:27.934996 28591 layer_factory.hpp:77] Creating layer conv8_1_relu
I1110 22:36:27.935000 28591 net.cpp:100] Creating Layer conv8_1_relu
I1110 22:36:27.935003 28591 net.cpp:434] conv8_1_relu <- conv8_1
I1110 22:36:27.935006 28591 net.cpp:395] conv8_1_relu -> conv8_1 (in-place)
I1110 22:36:27.935130 28591 net.cpp:150] Setting up conv8_1_relu
I1110 22:36:27.935137 28591 net.cpp:157] Top shape: 8 128 5 5 (25600)
I1110 22:36:27.935139 28591 net.cpp:165] Memory required for data: 1881686080
I1110 22:36:27.935142 28591 layer_factory.hpp:77] Creating layer conv8_2
I1110 22:36:27.935148 28591 net.cpp:100] Creating Layer conv8_2
I1110 22:36:27.935150 28591 net.cpp:434] conv8_2 <- conv8_1
I1110 22:36:27.935155 28591 net.cpp:408] conv8_2 -> conv8_2
I1110 22:36:27.937782 28591 net.cpp:150] Setting up conv8_2
I1110 22:36:27.937796 28591 net.cpp:157] Top shape: 8 256 3 3 (18432)
I1110 22:36:27.937798 28591 net.cpp:165] Memory required for data: 1881759808
I1110 22:36:27.937804 28591 layer_factory.hpp:77] Creating layer conv8_2_relu
I1110 22:36:27.937813 28591 net.cpp:100] Creating Layer conv8_2_relu
I1110 22:36:27.937815 28591 net.cpp:434] conv8_2_relu <- conv8_2
I1110 22:36:27.937820 28591 net.cpp:395] conv8_2_relu -> conv8_2 (in-place)
I1110 22:36:27.937944 28591 net.cpp:150] Setting up conv8_2_relu
I1110 22:36:27.937950 28591 net.cpp:157] Top shape: 8 256 3 3 (18432)
I1110 22:36:27.937952 28591 net.cpp:165] Memory required for data: 1881833536
I1110 22:36:27.937955 28591 layer_factory.hpp:77] Creating layer conv8_2_conv8_2_relu_0_split
I1110 22:36:27.937960 28591 net.cpp:100] Creating Layer conv8_2_conv8_2_relu_0_split
I1110 22:36:27.937963 28591 net.cpp:434] conv8_2_conv8_2_relu_0_split <- conv8_2
I1110 22:36:27.937968 28591 net.cpp:408] conv8_2_conv8_2_relu_0_split -> conv8_2_conv8_2_relu_0_split_0
I1110 22:36:27.937973 28591 net.cpp:408] conv8_2_conv8_2_relu_0_split -> conv8_2_conv8_2_relu_0_split_1
I1110 22:36:27.937978 28591 net.cpp:408] conv8_2_conv8_2_relu_0_split -> conv8_2_conv8_2_relu_0_split_2
I1110 22:36:27.937983 28591 net.cpp:408] conv8_2_conv8_2_relu_0_split -> conv8_2_conv8_2_relu_0_split_3
I1110 22:36:27.938040 28591 net.cpp:150] Setting up conv8_2_conv8_2_relu_0_split
I1110 22:36:27.938050 28591 net.cpp:157] Top shape: 8 256 3 3 (18432)
I1110 22:36:27.938053 28591 net.cpp:157] Top shape: 8 256 3 3 (18432)
I1110 22:36:27.938055 28591 net.cpp:157] Top shape: 8 256 3 3 (18432)
I1110 22:36:27.938058 28591 net.cpp:157] Top shape: 8 256 3 3 (18432)
I1110 22:36:27.938060 28591 net.cpp:165] Memory required for data: 1882128448
I1110 22:36:27.938062 28591 layer_factory.hpp:77] Creating layer conv9_1
I1110 22:36:27.938069 28591 net.cpp:100] Creating Layer conv9_1
I1110 22:36:27.938072 28591 net.cpp:434] conv9_1 <- conv8_2_conv8_2_relu_0_split_0
I1110 22:36:27.938078 28591 net.cpp:408] conv9_1 -> conv9_1
I1110 22:36:27.939750 28591 net.cpp:150] Setting up conv9_1
I1110 22:36:27.939759 28591 net.cpp:157] Top shape: 8 128 3 3 (9216)
I1110 22:36:27.939762 28591 net.cpp:165] Memory required for data: 1882165312
I1110 22:36:27.939767 28591 layer_factory.hpp:77] Creating layer conv9_1_relu
I1110 22:36:27.939772 28591 net.cpp:100] Creating Layer conv9_1_relu
I1110 22:36:27.939774 28591 net.cpp:434] conv9_1_relu <- conv9_1
I1110 22:36:27.939780 28591 net.cpp:395] conv9_1_relu -> conv9_1 (in-place)
I1110 22:36:27.940209 28591 net.cpp:150] Setting up conv9_1_relu
I1110 22:36:27.940218 28591 net.cpp:157] Top shape: 8 128 3 3 (9216)
I1110 22:36:27.940222 28591 net.cpp:165] Memory required for data: 1882202176
I1110 22:36:27.940224 28591 layer_factory.hpp:77] Creating layer conv9_2
I1110 22:36:27.940241 28591 net.cpp:100] Creating Layer conv9_2
I1110 22:36:27.940244 28591 net.cpp:434] conv9_2 <- conv9_1
I1110 22:36:27.940250 28591 net.cpp:408] conv9_2 -> conv9_2
I1110 22:36:27.942512 28591 net.cpp:150] Setting up conv9_2
I1110 22:36:27.942524 28591 net.cpp:157] Top shape: 8 256 1 1 (2048)
I1110 22:36:27.942528 28591 net.cpp:165] Memory required for data: 1882210368
I1110 22:36:27.942533 28591 layer_factory.hpp:77] Creating layer conv9_2_relu
I1110 22:36:27.942538 28591 net.cpp:100] Creating Layer conv9_2_relu
I1110 22:36:27.942541 28591 net.cpp:434] conv9_2_relu <- conv9_2
I1110 22:36:27.942545 28591 net.cpp:395] conv9_2_relu -> conv9_2 (in-place)
I1110 22:36:27.943022 28591 net.cpp:150] Setting up conv9_2_relu
I1110 22:36:27.943032 28591 net.cpp:157] Top shape: 8 256 1 1 (2048)
I1110 22:36:27.943033 28591 net.cpp:165] Memory required for data: 1882218560
I1110 22:36:27.943037 28591 layer_factory.hpp:77] Creating layer conv9_2_conv9_2_relu_0_split
I1110 22:36:27.943042 28591 net.cpp:100] Creating Layer conv9_2_conv9_2_relu_0_split
I1110 22:36:27.943045 28591 net.cpp:434] conv9_2_conv9_2_relu_0_split <- conv9_2
I1110 22:36:27.943050 28591 net.cpp:408] conv9_2_conv9_2_relu_0_split -> conv9_2_conv9_2_relu_0_split_0
I1110 22:36:27.943056 28591 net.cpp:408] conv9_2_conv9_2_relu_0_split -> conv9_2_conv9_2_relu_0_split_1
I1110 22:36:27.943061 28591 net.cpp:408] conv9_2_conv9_2_relu_0_split -> conv9_2_conv9_2_relu_0_split_2
I1110 22:36:27.943111 28591 net.cpp:150] Setting up conv9_2_conv9_2_relu_0_split
I1110 22:36:27.943117 28591 net.cpp:157] Top shape: 8 256 1 1 (2048)
I1110 22:36:27.943120 28591 net.cpp:157] Top shape: 8 256 1 1 (2048)
I1110 22:36:27.943122 28591 net.cpp:157] Top shape: 8 256 1 1 (2048)
I1110 22:36:27.943125 28591 net.cpp:165] Memory required for data: 1882243136
I1110 22:36:27.943127 28591 layer_factory.hpp:77] Creating layer conv4_3_norm
I1110 22:36:27.943132 28591 net.cpp:100] Creating Layer conv4_3_norm
I1110 22:36:27.943135 28591 net.cpp:434] conv4_3_norm <- conv4_3_relu4_3_0_split_1
I1110 22:36:27.943140 28591 net.cpp:408] conv4_3_norm -> conv4_3_norm
I1110 22:36:27.943276 28591 net.cpp:150] Setting up conv4_3_norm
I1110 22:36:27.943281 28591 net.cpp:157] Top shape: 8 512 38 38 (5914624)
I1110 22:36:27.943284 28591 net.cpp:165] Memory required for data: 1905901632
I1110 22:36:27.943287 28591 layer_factory.hpp:77] Creating layer conv4_3_norm_conv4_3_norm_0_split
I1110 22:36:27.943291 28591 net.cpp:100] Creating Layer conv4_3_norm_conv4_3_norm_0_split
I1110 22:36:27.943294 28591 net.cpp:434] conv4_3_norm_conv4_3_norm_0_split <- conv4_3_norm
I1110 22:36:27.943297 28591 net.cpp:408] conv4_3_norm_conv4_3_norm_0_split -> conv4_3_norm_conv4_3_norm_0_split_0
I1110 22:36:27.943303 28591 net.cpp:408] conv4_3_norm_conv4_3_norm_0_split -> conv4_3_norm_conv4_3_norm_0_split_1
I1110 22:36:27.943307 28591 net.cpp:408] conv4_3_norm_conv4_3_norm_0_split -> conv4_3_norm_conv4_3_norm_0_split_2
I1110 22:36:27.943347 28591 net.cpp:150] Setting up conv4_3_norm_conv4_3_norm_0_split
I1110 22:36:27.943352 28591 net.cpp:157] Top shape: 8 512 38 38 (5914624)
I1110 22:36:27.943356 28591 net.cpp:157] Top shape: 8 512 38 38 (5914624)
I1110 22:36:27.943358 28591 net.cpp:157] Top shape: 8 512 38 38 (5914624)
I1110 22:36:27.943361 28591 net.cpp:165] Memory required for data: 1976877120
I1110 22:36:27.943362 28591 layer_factory.hpp:77] Creating layer conv4_3_norm_mbox_loc
I1110 22:36:27.943370 28591 net.cpp:100] Creating Layer conv4_3_norm_mbox_loc
I1110 22:36:27.943372 28591 net.cpp:434] conv4_3_norm_mbox_loc <- conv4_3_norm_conv4_3_norm_0_split_0
I1110 22:36:27.943377 28591 net.cpp:408] conv4_3_norm_mbox_loc -> conv4_3_norm_mbox_loc
I1110 22:36:27.944830 28591 net.cpp:150] Setting up conv4_3_norm_mbox_loc
I1110 22:36:27.944839 28591 net.cpp:157] Top shape: 8 16 38 38 (184832)
I1110 22:36:27.944842 28591 net.cpp:165] Memory required for data: 1977616448
I1110 22:36:27.944846 28591 layer_factory.hpp:77] Creating layer conv4_3_norm_mbox_loc_perm
I1110 22:36:27.944851 28591 net.cpp:100] Creating Layer conv4_3_norm_mbox_loc_perm
I1110 22:36:27.944864 28591 net.cpp:434] conv4_3_norm_mbox_loc_perm <- conv4_3_norm_mbox_loc
I1110 22:36:27.944869 28591 net.cpp:408] conv4_3_norm_mbox_loc_perm -> conv4_3_norm_mbox_loc_perm
I1110 22:36:27.944964 28591 net.cpp:150] Setting up conv4_3_norm_mbox_loc_perm
I1110 22:36:27.944969 28591 net.cpp:157] Top shape: 8 38 38 16 (184832)
I1110 22:36:27.944972 28591 net.cpp:165] Memory required for data: 1978355776
I1110 22:36:27.944974 28591 layer_factory.hpp:77] Creating layer conv4_3_norm_mbox_loc_flat
I1110 22:36:27.944978 28591 net.cpp:100] Creating Layer conv4_3_norm_mbox_loc_flat
I1110 22:36:27.944981 28591 net.cpp:434] conv4_3_norm_mbox_loc_flat <- conv4_3_norm_mbox_loc_perm
I1110 22:36:27.944985 28591 net.cpp:408] conv4_3_norm_mbox_loc_flat -> conv4_3_norm_mbox_loc_flat
I1110 22:36:27.945020 28591 net.cpp:150] Setting up conv4_3_norm_mbox_loc_flat
I1110 22:36:27.945025 28591 net.cpp:157] Top shape: 8 23104 (184832)
I1110 22:36:27.945027 28591 net.cpp:165] Memory required for data: 1979095104
I1110 22:36:27.945030 28591 layer_factory.hpp:77] Creating layer conv4_3_norm_mbox_conf
I1110 22:36:27.945042 28591 net.cpp:100] Creating Layer conv4_3_norm_mbox_conf
I1110 22:36:27.945045 28591 net.cpp:434] conv4_3_norm_mbox_conf <- conv4_3_norm_conv4_3_norm_0_split_1
I1110 22:36:27.945050 28591 net.cpp:408] conv4_3_norm_mbox_conf -> conv4_3_norm_mbox_conf
I1110 22:36:27.948232 28591 net.cpp:150] Setting up conv4_3_norm_mbox_conf
I1110 22:36:27.948245 28591 net.cpp:157] Top shape: 8 84 38 38 (970368)
I1110 22:36:27.948249 28591 net.cpp:165] Memory required for data: 1982976576
I1110 22:36:27.948254 28591 layer_factory.hpp:77] Creating layer conv4_3_norm_mbox_conf_perm
I1110 22:36:27.948259 28591 net.cpp:100] Creating Layer conv4_3_norm_mbox_conf_perm
I1110 22:36:27.948262 28591 net.cpp:434] conv4_3_norm_mbox_conf_perm <- conv4_3_norm_mbox_conf
I1110 22:36:27.948268 28591 net.cpp:408] conv4_3_norm_mbox_conf_perm -> conv4_3_norm_mbox_conf_perm
I1110 22:36:27.948364 28591 net.cpp:150] Setting up conv4_3_norm_mbox_conf_perm
I1110 22:36:27.948369 28591 net.cpp:157] Top shape: 8 38 38 84 (970368)
I1110 22:36:27.948370 28591 net.cpp:165] Memory required for data: 1986858048
I1110 22:36:27.948374 28591 layer_factory.hpp:77] Creating layer conv4_3_norm_mbox_conf_flat
I1110 22:36:27.948377 28591 net.cpp:100] Creating Layer conv4_3_norm_mbox_conf_flat
I1110 22:36:27.948380 28591 net.cpp:434] conv4_3_norm_mbox_conf_flat <- conv4_3_norm_mbox_conf_perm
I1110 22:36:27.948385 28591 net.cpp:408] conv4_3_norm_mbox_conf_flat -> conv4_3_norm_mbox_conf_flat
I1110 22:36:27.948405 28591 net.cpp:150] Setting up conv4_3_norm_mbox_conf_flat
I1110 22:36:27.948410 28591 net.cpp:157] Top shape: 8 121296 (970368)
I1110 22:36:27.948411 28591 net.cpp:165] Memory required for data: 1990739520
I1110 22:36:27.948413 28591 layer_factory.hpp:77] Creating layer conv4_3_norm_mbox_priorbox
I1110 22:36:27.948421 28591 net.cpp:100] Creating Layer conv4_3_norm_mbox_priorbox
I1110 22:36:27.948423 28591 net.cpp:434] conv4_3_norm_mbox_priorbox <- conv4_3_norm_conv4_3_norm_0_split_2
I1110 22:36:27.948427 28591 net.cpp:434] conv4_3_norm_mbox_priorbox <- data_data_0_split_1
I1110 22:36:27.948432 28591 net.cpp:408] conv4_3_norm_mbox_priorbox -> conv4_3_norm_mbox_priorbox
I1110 22:36:27.948456 28591 net.cpp:150] Setting up conv4_3_norm_mbox_priorbox
I1110 22:36:27.948459 28591 net.cpp:157] Top shape: 1 2 23104 (46208)
I1110 22:36:27.948462 28591 net.cpp:165] Memory required for data: 1990924352
I1110 22:36:27.948464 28591 layer_factory.hpp:77] Creating layer fc7_mbox_loc
I1110 22:36:27.948472 28591 net.cpp:100] Creating Layer fc7_mbox_loc
I1110 22:36:27.948475 28591 net.cpp:434] fc7_mbox_loc <- fc7_relu7_0_split_1
I1110 22:36:27.948479 28591 net.cpp:408] fc7_mbox_loc -> fc7_mbox_loc
I1110 22:36:27.950151 28591 net.cpp:150] Setting up fc7_mbox_loc
I1110 22:36:27.950160 28591 net.cpp:157] Top shape: 8 24 19 19 (69312)
I1110 22:36:27.950165 28591 net.cpp:165] Memory required for data: 1991201600
I1110 22:36:27.950170 28591 layer_factory.hpp:77] Creating layer fc7_mbox_loc_perm
I1110 22:36:27.950184 28591 net.cpp:100] Creating Layer fc7_mbox_loc_perm
I1110 22:36:27.950191 28591 net.cpp:434] fc7_mbox_loc_perm <- fc7_mbox_loc
I1110 22:36:27.950196 28591 net.cpp:408] fc7_mbox_loc_perm -> fc7_mbox_loc_perm
I1110 22:36:27.950291 28591 net.cpp:150] Setting up fc7_mbox_loc_perm
I1110 22:36:27.950295 28591 net.cpp:157] Top shape: 8 19 19 24 (69312)
I1110 22:36:27.950299 28591 net.cpp:165] Memory required for data: 1991478848
I1110 22:36:27.950300 28591 layer_factory.hpp:77] Creating layer fc7_mbox_loc_flat
I1110 22:36:27.950306 28591 net.cpp:100] Creating Layer fc7_mbox_loc_flat
I1110 22:36:27.950309 28591 net.cpp:434] fc7_mbox_loc_flat <- fc7_mbox_loc_perm
I1110 22:36:27.950314 28591 net.cpp:408] fc7_mbox_loc_flat -> fc7_mbox_loc_flat
I1110 22:36:27.950335 28591 net.cpp:150] Setting up fc7_mbox_loc_flat
I1110 22:36:27.950338 28591 net.cpp:157] Top shape: 8 8664 (69312)
I1110 22:36:27.950340 28591 net.cpp:165] Memory required for data: 1991756096
I1110 22:36:27.950343 28591 layer_factory.hpp:77] Creating layer fc7_mbox_conf
I1110 22:36:27.950351 28591 net.cpp:100] Creating Layer fc7_mbox_conf
I1110 22:36:27.950354 28591 net.cpp:434] fc7_mbox_conf <- fc7_relu7_0_split_2
I1110 22:36:27.950358 28591 net.cpp:408] fc7_mbox_conf -> fc7_mbox_conf
I1110 22:36:27.956737 28591 net.cpp:150] Setting up fc7_mbox_conf
I1110 22:36:27.956753 28591 net.cpp:157] Top shape: 8 126 19 19 (363888)
I1110 22:36:27.956754 28591 net.cpp:165] Memory required for data: 1993211648
I1110 22:36:27.956761 28591 layer_factory.hpp:77] Creating layer fc7_mbox_conf_perm
I1110 22:36:27.956769 28591 net.cpp:100] Creating Layer fc7_mbox_conf_perm
I1110 22:36:27.956774 28591 net.cpp:434] fc7_mbox_conf_perm <- fc7_mbox_conf
I1110 22:36:27.956779 28591 net.cpp:408] fc7_mbox_conf_perm -> fc7_mbox_conf_perm
I1110 22:36:27.956895 28591 net.cpp:150] Setting up fc7_mbox_conf_perm
I1110 22:36:27.956907 28591 net.cpp:157] Top shape: 8 19 19 126 (363888)
I1110 22:36:27.956910 28591 net.cpp:165] Memory required for data: 1994667200
I1110 22:36:27.956915 28591 layer_factory.hpp:77] Creating layer fc7_mbox_conf_flat
I1110 22:36:27.956923 28591 net.cpp:100] Creating Layer fc7_mbox_conf_flat
I1110 22:36:27.956929 28591 net.cpp:434] fc7_mbox_conf_flat <- fc7_mbox_conf_perm
I1110 22:36:27.956935 28591 net.cpp:408] fc7_mbox_conf_flat -> fc7_mbox_conf_flat
I1110 22:36:27.956959 28591 net.cpp:150] Setting up fc7_mbox_conf_flat
I1110 22:36:27.956964 28591 net.cpp:157] Top shape: 8 45486 (363888)
I1110 22:36:27.956966 28591 net.cpp:165] Memory required for data: 1996122752
I1110 22:36:27.956969 28591 layer_factory.hpp:77] Creating layer fc7_mbox_priorbox
I1110 22:36:27.956974 28591 net.cpp:100] Creating Layer fc7_mbox_priorbox
I1110 22:36:27.956979 28591 net.cpp:434] fc7_mbox_priorbox <- fc7_relu7_0_split_3
I1110 22:36:27.956982 28591 net.cpp:434] fc7_mbox_priorbox <- data_data_0_split_2
I1110 22:36:27.956987 28591 net.cpp:408] fc7_mbox_priorbox -> fc7_mbox_priorbox
I1110 22:36:27.957010 28591 net.cpp:150] Setting up fc7_mbox_priorbox
I1110 22:36:27.957015 28591 net.cpp:157] Top shape: 1 2 8664 (17328)
I1110 22:36:27.957018 28591 net.cpp:165] Memory required for data: 1996192064
I1110 22:36:27.957020 28591 layer_factory.hpp:77] Creating layer conv6_2_mbox_loc
I1110 22:36:27.957029 28591 net.cpp:100] Creating Layer conv6_2_mbox_loc
I1110 22:36:27.957033 28591 net.cpp:434] conv6_2_mbox_loc <- conv6_2_conv6_2_relu_0_split_1
I1110 22:36:27.957039 28591 net.cpp:408] conv6_2_mbox_loc -> conv6_2_mbox_loc
I1110 22:36:27.958636 28591 net.cpp:150] Setting up conv6_2_mbox_loc
I1110 22:36:27.958644 28591 net.cpp:157] Top shape: 8 24 10 10 (19200)
I1110 22:36:27.958647 28591 net.cpp:165] Memory required for data: 1996268864
I1110 22:36:27.958652 28591 layer_factory.hpp:77] Creating layer conv6_2_mbox_loc_perm
I1110 22:36:27.958658 28591 net.cpp:100] Creating Layer conv6_2_mbox_loc_perm
I1110 22:36:27.958662 28591 net.cpp:434] conv6_2_mbox_loc_perm <- conv6_2_mbox_loc
I1110 22:36:27.958667 28591 net.cpp:408] conv6_2_mbox_loc_perm -> conv6_2_mbox_loc_perm
I1110 22:36:27.958772 28591 net.cpp:150] Setting up conv6_2_mbox_loc_perm
I1110 22:36:27.958778 28591 net.cpp:157] Top shape: 8 10 10 24 (19200)
I1110 22:36:27.958781 28591 net.cpp:165] Memory required for data: 1996345664
I1110 22:36:27.958784 28591 layer_factory.hpp:77] Creating layer conv6_2_mbox_loc_flat
I1110 22:36:27.958788 28591 net.cpp:100] Creating Layer conv6_2_mbox_loc_flat
I1110 22:36:27.958791 28591 net.cpp:434] conv6_2_mbox_loc_flat <- conv6_2_mbox_loc_perm
I1110 22:36:27.958794 28591 net.cpp:408] conv6_2_mbox_loc_flat -> conv6_2_mbox_loc_flat
I1110 22:36:27.958828 28591 net.cpp:150] Setting up conv6_2_mbox_loc_flat
I1110 22:36:27.958834 28591 net.cpp:157] Top shape: 8 2400 (19200)
I1110 22:36:27.958837 28591 net.cpp:165] Memory required for data: 1996422464
I1110 22:36:27.958839 28591 layer_factory.hpp:77] Creating layer conv6_2_mbox_conf
I1110 22:36:27.958858 28591 net.cpp:100] Creating Layer conv6_2_mbox_conf
I1110 22:36:27.958861 28591 net.cpp:434] conv6_2_mbox_conf <- conv6_2_conv6_2_relu_0_split_2
I1110 22:36:27.958868 28591 net.cpp:408] conv6_2_mbox_conf -> conv6_2_mbox_conf
I1110 22:36:27.962806 28591 net.cpp:150] Setting up conv6_2_mbox_conf
I1110 22:36:27.962829 28591 net.cpp:157] Top shape: 8 126 10 10 (100800)
I1110 22:36:27.962833 28591 net.cpp:165] Memory required for data: 1996825664
I1110 22:36:27.962838 28591 layer_factory.hpp:77] Creating layer conv6_2_mbox_conf_perm
I1110 22:36:27.962847 28591 net.cpp:100] Creating Layer conv6_2_mbox_conf_perm
I1110 22:36:27.962852 28591 net.cpp:434] conv6_2_mbox_conf_perm <- conv6_2_mbox_conf
I1110 22:36:27.962858 28591 net.cpp:408] conv6_2_mbox_conf_perm -> conv6_2_mbox_conf_perm
I1110 22:36:27.962957 28591 net.cpp:150] Setting up conv6_2_mbox_conf_perm
I1110 22:36:27.962962 28591 net.cpp:157] Top shape: 8 10 10 126 (100800)
I1110 22:36:27.962965 28591 net.cpp:165] Memory required for data: 1997228864
I1110 22:36:27.962968 28591 layer_factory.hpp:77] Creating layer conv6_2_mbox_conf_flat
I1110 22:36:27.962973 28591 net.cpp:100] Creating Layer conv6_2_mbox_conf_flat
I1110 22:36:27.962976 28591 net.cpp:434] conv6_2_mbox_conf_flat <- conv6_2_mbox_conf_perm
I1110 22:36:27.962981 28591 net.cpp:408] conv6_2_mbox_conf_flat -> conv6_2_mbox_conf_flat
I1110 22:36:27.963002 28591 net.cpp:150] Setting up conv6_2_mbox_conf_flat
I1110 22:36:27.963007 28591 net.cpp:157] Top shape: 8 12600 (100800)
I1110 22:36:27.963011 28591 net.cpp:165] Memory required for data: 1997632064
I1110 22:36:27.963012 28591 layer_factory.hpp:77] Creating layer conv6_2_mbox_priorbox
I1110 22:36:27.963018 28591 net.cpp:100] Creating Layer conv6_2_mbox_priorbox
I1110 22:36:27.963021 28591 net.cpp:434] conv6_2_mbox_priorbox <- conv6_2_conv6_2_relu_0_split_3
I1110 22:36:27.963026 28591 net.cpp:434] conv6_2_mbox_priorbox <- data_data_0_split_3
I1110 22:36:27.963030 28591 net.cpp:408] conv6_2_mbox_priorbox -> conv6_2_mbox_priorbox
I1110 22:36:27.963054 28591 net.cpp:150] Setting up conv6_2_mbox_priorbox
I1110 22:36:27.963059 28591 net.cpp:157] Top shape: 1 2 2400 (4800)
I1110 22:36:27.963063 28591 net.cpp:165] Memory required for data: 1997651264
I1110 22:36:27.963064 28591 layer_factory.hpp:77] Creating layer conv7_2_mbox_loc
I1110 22:36:27.963073 28591 net.cpp:100] Creating Layer conv7_2_mbox_loc
I1110 22:36:27.963075 28591 net.cpp:434] conv7_2_mbox_loc <- conv7_2_conv7_2_relu_0_split_1
I1110 22:36:27.963079 28591 net.cpp:408] conv7_2_mbox_loc -> conv7_2_mbox_loc
I1110 22:36:27.964208 28591 net.cpp:150] Setting up conv7_2_mbox_loc
I1110 22:36:27.964217 28591 net.cpp:157] Top shape: 8 24 5 5 (4800)
I1110 22:36:27.964221 28591 net.cpp:165] Memory required for data: 1997670464
I1110 22:36:27.964226 28591 layer_factory.hpp:77] Creating layer conv7_2_mbox_loc_perm
I1110 22:36:27.964231 28591 net.cpp:100] Creating Layer conv7_2_mbox_loc_perm
I1110 22:36:27.964234 28591 net.cpp:434] conv7_2_mbox_loc_perm <- conv7_2_mbox_loc
I1110 22:36:27.964241 28591 net.cpp:408] conv7_2_mbox_loc_perm -> conv7_2_mbox_loc_perm
I1110 22:36:27.964330 28591 net.cpp:150] Setting up conv7_2_mbox_loc_perm
I1110 22:36:27.964344 28591 net.cpp:157] Top shape: 8 5 5 24 (4800)
I1110 22:36:27.964346 28591 net.cpp:165] Memory required for data: 1997689664
I1110 22:36:27.964349 28591 layer_factory.hpp:77] Creating layer conv7_2_mbox_loc_flat
I1110 22:36:27.964355 28591 net.cpp:100] Creating Layer conv7_2_mbox_loc_flat
I1110 22:36:27.964359 28591 net.cpp:434] conv7_2_mbox_loc_flat <- conv7_2_mbox_loc_perm
I1110 22:36:27.964362 28591 net.cpp:408] conv7_2_mbox_loc_flat -> conv7_2_mbox_loc_flat
I1110 22:36:27.964383 28591 net.cpp:150] Setting up conv7_2_mbox_loc_flat
I1110 22:36:27.964387 28591 net.cpp:157] Top shape: 8 600 (4800)
I1110 22:36:27.964390 28591 net.cpp:165] Memory required for data: 1997708864
I1110 22:36:27.964391 28591 layer_factory.hpp:77] Creating layer conv7_2_mbox_conf
I1110 22:36:27.964399 28591 net.cpp:100] Creating Layer conv7_2_mbox_conf
I1110 22:36:27.964403 28591 net.cpp:434] conv7_2_mbox_conf <- conv7_2_conv7_2_relu_0_split_2
I1110 22:36:27.964407 28591 net.cpp:408] conv7_2_mbox_conf -> conv7_2_mbox_conf
I1110 22:36:27.967280 28591 net.cpp:150] Setting up conv7_2_mbox_conf
I1110 22:36:27.967293 28591 net.cpp:157] Top shape: 8 126 5 5 (25200)
I1110 22:36:27.967295 28591 net.cpp:165] Memory required for data: 1997809664
I1110 22:36:27.967301 28591 layer_factory.hpp:77] Creating layer conv7_2_mbox_conf_perm
I1110 22:36:27.967309 28591 net.cpp:100] Creating Layer conv7_2_mbox_conf_perm
I1110 22:36:27.967312 28591 net.cpp:434] conv7_2_mbox_conf_perm <- conv7_2_mbox_conf
I1110 22:36:27.967319 28591 net.cpp:408] conv7_2_mbox_conf_perm -> conv7_2_mbox_conf_perm
I1110 22:36:27.967419 28591 net.cpp:150] Setting up conv7_2_mbox_conf_perm
I1110 22:36:27.967424 28591 net.cpp:157] Top shape: 8 5 5 126 (25200)
I1110 22:36:27.967427 28591 net.cpp:165] Memory required for data: 1997910464
I1110 22:36:27.967430 28591 layer_factory.hpp:77] Creating layer conv7_2_mbox_conf_flat
I1110 22:36:27.967433 28591 net.cpp:100] Creating Layer conv7_2_mbox_conf_flat
I1110 22:36:27.967437 28591 net.cpp:434] conv7_2_mbox_conf_flat <- conv7_2_mbox_conf_perm
I1110 22:36:27.967442 28591 net.cpp:408] conv7_2_mbox_conf_flat -> conv7_2_mbox_conf_flat
I1110 22:36:27.967463 28591 net.cpp:150] Setting up conv7_2_mbox_conf_flat
I1110 22:36:27.967468 28591 net.cpp:157] Top shape: 8 3150 (25200)
I1110 22:36:27.967469 28591 net.cpp:165] Memory required for data: 1998011264
I1110 22:36:27.967471 28591 layer_factory.hpp:77] Creating layer conv7_2_mbox_priorbox
I1110 22:36:27.967478 28591 net.cpp:100] Creating Layer conv7_2_mbox_priorbox
I1110 22:36:27.967480 28591 net.cpp:434] conv7_2_mbox_priorbox <- conv7_2_conv7_2_relu_0_split_3
I1110 22:36:27.967483 28591 net.cpp:434] conv7_2_mbox_priorbox <- data_data_0_split_4
I1110 22:36:27.967489 28591 net.cpp:408] conv7_2_mbox_priorbox -> conv7_2_mbox_priorbox
I1110 22:36:27.967512 28591 net.cpp:150] Setting up conv7_2_mbox_priorbox
I1110 22:36:27.967517 28591 net.cpp:157] Top shape: 1 2 600 (1200)
I1110 22:36:27.967519 28591 net.cpp:165] Memory required for data: 1998016064
I1110 22:36:27.967521 28591 layer_factory.hpp:77] Creating layer conv8_2_mbox_loc
I1110 22:36:27.967530 28591 net.cpp:100] Creating Layer conv8_2_mbox_loc
I1110 22:36:27.967532 28591 net.cpp:434] conv8_2_mbox_loc <- conv8_2_conv8_2_relu_0_split_1
I1110 22:36:27.967537 28591 net.cpp:408] conv8_2_mbox_loc -> conv8_2_mbox_loc
I1110 22:36:27.968905 28591 net.cpp:150] Setting up conv8_2_mbox_loc
I1110 22:36:27.968914 28591 net.cpp:157] Top shape: 8 16 3 3 (1152)
I1110 22:36:27.968916 28591 net.cpp:165] Memory required for data: 1998020672
I1110 22:36:27.968930 28591 layer_factory.hpp:77] Creating layer conv8_2_mbox_loc_perm
I1110 22:36:27.968936 28591 net.cpp:100] Creating Layer conv8_2_mbox_loc_perm
I1110 22:36:27.968940 28591 net.cpp:434] conv8_2_mbox_loc_perm <- conv8_2_mbox_loc
I1110 22:36:27.968946 28591 net.cpp:408] conv8_2_mbox_loc_perm -> conv8_2_mbox_loc_perm
I1110 22:36:27.969045 28591 net.cpp:150] Setting up conv8_2_mbox_loc_perm
I1110 22:36:27.969050 28591 net.cpp:157] Top shape: 8 3 3 16 (1152)
I1110 22:36:27.969053 28591 net.cpp:165] Memory required for data: 1998025280
I1110 22:36:27.969064 28591 layer_factory.hpp:77] Creating layer conv8_2_mbox_loc_flat
I1110 22:36:27.969070 28591 net.cpp:100] Creating Layer conv8_2_mbox_loc_flat
I1110 22:36:27.969072 28591 net.cpp:434] conv8_2_mbox_loc_flat <- conv8_2_mbox_loc_perm
I1110 22:36:27.969076 28591 net.cpp:408] conv8_2_mbox_loc_flat -> conv8_2_mbox_loc_flat
I1110 22:36:27.969099 28591 net.cpp:150] Setting up conv8_2_mbox_loc_flat
I1110 22:36:27.969103 28591 net.cpp:157] Top shape: 8 144 (1152)
I1110 22:36:27.969106 28591 net.cpp:165] Memory required for data: 1998029888
I1110 22:36:27.969108 28591 layer_factory.hpp:77] Creating layer conv8_2_mbox_conf
I1110 22:36:27.969115 28591 net.cpp:100] Creating Layer conv8_2_mbox_conf
I1110 22:36:27.969117 28591 net.cpp:434] conv8_2_mbox_conf <- conv8_2_conv8_2_relu_0_split_2
I1110 22:36:27.969123 28591 net.cpp:408] conv8_2_mbox_conf -> conv8_2_mbox_conf
I1110 22:36:27.971045 28591 net.cpp:150] Setting up conv8_2_mbox_conf
I1110 22:36:27.971056 28591 net.cpp:157] Top shape: 8 84 3 3 (6048)
I1110 22:36:27.971060 28591 net.cpp:165] Memory required for data: 1998054080
I1110 22:36:27.971066 28591 layer_factory.hpp:77] Creating layer conv8_2_mbox_conf_perm
I1110 22:36:27.971074 28591 net.cpp:100] Creating Layer conv8_2_mbox_conf_perm
I1110 22:36:27.971077 28591 net.cpp:434] conv8_2_mbox_conf_perm <- conv8_2_mbox_conf
I1110 22:36:27.971086 28591 net.cpp:408] conv8_2_mbox_conf_perm -> conv8_2_mbox_conf_perm
I1110 22:36:27.971215 28591 net.cpp:150] Setting up conv8_2_mbox_conf_perm
I1110 22:36:27.971220 28591 net.cpp:157] Top shape: 8 3 3 84 (6048)
I1110 22:36:27.971225 28591 net.cpp:165] Memory required for data: 1998078272
I1110 22:36:27.971228 28591 layer_factory.hpp:77] Creating layer conv8_2_mbox_conf_flat
I1110 22:36:27.971235 28591 net.cpp:100] Creating Layer conv8_2_mbox_conf_flat
I1110 22:36:27.971240 28591 net.cpp:434] conv8_2_mbox_conf_flat <- conv8_2_mbox_conf_perm
I1110 22:36:27.971246 28591 net.cpp:408] conv8_2_mbox_conf_flat -> conv8_2_mbox_conf_flat
I1110 22:36:27.971272 28591 net.cpp:150] Setting up conv8_2_mbox_conf_flat
I1110 22:36:27.971277 28591 net.cpp:157] Top shape: 8 756 (6048)
I1110 22:36:27.971282 28591 net.cpp:165] Memory required for data: 1998102464
I1110 22:36:27.971284 28591 layer_factory.hpp:77] Creating layer conv8_2_mbox_priorbox
I1110 22:36:27.971293 28591 net.cpp:100] Creating Layer conv8_2_mbox_priorbox
I1110 22:36:27.971298 28591 net.cpp:434] conv8_2_mbox_priorbox <- conv8_2_conv8_2_relu_0_split_3
I1110 22:36:27.971303 28591 net.cpp:434] conv8_2_mbox_priorbox <- data_data_0_split_5
I1110 22:36:27.971312 28591 net.cpp:408] conv8_2_mbox_priorbox -> conv8_2_mbox_priorbox
I1110 22:36:27.971340 28591 net.cpp:150] Setting up conv8_2_mbox_priorbox
I1110 22:36:27.971346 28591 net.cpp:157] Top shape: 1 2 144 (288)
I1110 22:36:27.971350 28591 net.cpp:165] Memory required for data: 1998103616
I1110 22:36:27.971354 28591 layer_factory.hpp:77] Creating layer conv9_2_mbox_loc
I1110 22:36:27.971364 28591 net.cpp:100] Creating Layer conv9_2_mbox_loc
I1110 22:36:27.971369 28591 net.cpp:434] conv9_2_mbox_loc <- conv9_2_conv9_2_relu_0_split_0
I1110 22:36:27.971376 28591 net.cpp:408] conv9_2_mbox_loc -> conv9_2_mbox_loc
I1110 22:36:27.973047 28591 net.cpp:150] Setting up conv9_2_mbox_loc
I1110 22:36:27.973057 28591 net.cpp:157] Top shape: 8 16 1 1 (128)
I1110 22:36:27.973060 28591 net.cpp:165] Memory required for data: 1998104128
I1110 22:36:27.973067 28591 layer_factory.hpp:77] Creating layer conv9_2_mbox_loc_perm
I1110 22:36:27.973074 28591 net.cpp:100] Creating Layer conv9_2_mbox_loc_perm
I1110 22:36:27.973079 28591 net.cpp:434] conv9_2_mbox_loc_perm <- conv9_2_mbox_loc
I1110 22:36:27.973085 28591 net.cpp:408] conv9_2_mbox_loc_perm -> conv9_2_mbox_loc_perm
I1110 22:36:27.973213 28591 net.cpp:150] Setting up conv9_2_mbox_loc_perm
I1110 22:36:27.973219 28591 net.cpp:157] Top shape: 8 1 1 16 (128)
I1110 22:36:27.973223 28591 net.cpp:165] Memory required for data: 1998104640
I1110 22:36:27.973227 28591 layer_factory.hpp:77] Creating layer conv9_2_mbox_loc_flat
I1110 22:36:27.973242 28591 net.cpp:100] Creating Layer conv9_2_mbox_loc_flat
I1110 22:36:27.973246 28591 net.cpp:434] conv9_2_mbox_loc_flat <- conv9_2_mbox_loc_perm
I1110 22:36:27.973253 28591 net.cpp:408] conv9_2_mbox_loc_flat -> conv9_2_mbox_loc_flat
I1110 22:36:27.973280 28591 net.cpp:150] Setting up conv9_2_mbox_loc_flat
I1110 22:36:27.973286 28591 net.cpp:157] Top shape: 8 16 (128)
I1110 22:36:27.973290 28591 net.cpp:165] Memory required for data: 1998105152
I1110 22:36:27.973294 28591 layer_factory.hpp:77] Creating layer conv9_2_mbox_conf
I1110 22:36:27.973304 28591 net.cpp:100] Creating Layer conv9_2_mbox_conf
I1110 22:36:27.973307 28591 net.cpp:434] conv9_2_mbox_conf <- conv9_2_conv9_2_relu_0_split_1
I1110 22:36:27.973315 28591 net.cpp:408] conv9_2_mbox_conf -> conv9_2_mbox_conf
I1110 22:36:27.975399 28591 net.cpp:150] Setting up conv9_2_mbox_conf
I1110 22:36:27.975407 28591 net.cpp:157] Top shape: 8 84 1 1 (672)
I1110 22:36:27.975410 28591 net.cpp:165] Memory required for data: 1998107840
I1110 22:36:27.975415 28591 layer_factory.hpp:77] Creating layer conv9_2_mbox_conf_perm
I1110 22:36:27.975422 28591 net.cpp:100] Creating Layer conv9_2_mbox_conf_perm
I1110 22:36:27.975425 28591 net.cpp:434] conv9_2_mbox_conf_perm <- conv9_2_mbox_conf
I1110 22:36:27.975430 28591 net.cpp:408] conv9_2_mbox_conf_perm -> conv9_2_mbox_conf_perm
I1110 22:36:27.975534 28591 net.cpp:150] Setting up conv9_2_mbox_conf_perm
I1110 22:36:27.975540 28591 net.cpp:157] Top shape: 8 1 1 84 (672)
I1110 22:36:27.975543 28591 net.cpp:165] Memory required for data: 1998110528
I1110 22:36:27.975545 28591 layer_factory.hpp:77] Creating layer conv9_2_mbox_conf_flat
I1110 22:36:27.975549 28591 net.cpp:100] Creating Layer conv9_2_mbox_conf_flat
I1110 22:36:27.975553 28591 net.cpp:434] conv9_2_mbox_conf_flat <- conv9_2_mbox_conf_perm
I1110 22:36:27.975558 28591 net.cpp:408] conv9_2_mbox_conf_flat -> conv9_2_mbox_conf_flat
I1110 22:36:27.975579 28591 net.cpp:150] Setting up conv9_2_mbox_conf_flat
I1110 22:36:27.975582 28591 net.cpp:157] Top shape: 8 84 (672)
I1110 22:36:27.975586 28591 net.cpp:165] Memory required for data: 1998113216
I1110 22:36:27.975589 28591 layer_factory.hpp:77] Creating layer conv9_2_mbox_priorbox
I1110 22:36:27.975594 28591 net.cpp:100] Creating Layer conv9_2_mbox_priorbox
I1110 22:36:27.975597 28591 net.cpp:434] conv9_2_mbox_priorbox <- conv9_2_conv9_2_relu_0_split_2
I1110 22:36:27.975601 28591 net.cpp:434] conv9_2_mbox_priorbox <- data_data_0_split_6
I1110 22:36:27.975607 28591 net.cpp:408] conv9_2_mbox_priorbox -> conv9_2_mbox_priorbox
I1110 22:36:27.975628 28591 net.cpp:150] Setting up conv9_2_mbox_priorbox
I1110 22:36:27.975633 28591 net.cpp:157] Top shape: 1 2 16 (32)
I1110 22:36:27.975636 28591 net.cpp:165] Memory required for data: 1998113344
I1110 22:36:27.975638 28591 layer_factory.hpp:77] Creating layer mbox_loc
I1110 22:36:27.975644 28591 net.cpp:100] Creating Layer mbox_loc
I1110 22:36:27.975648 28591 net.cpp:434] mbox_loc <- conv4_3_norm_mbox_loc_flat
I1110 22:36:27.975653 28591 net.cpp:434] mbox_loc <- fc7_mbox_loc_flat
I1110 22:36:27.975657 28591 net.cpp:434] mbox_loc <- conv6_2_mbox_loc_flat
I1110 22:36:27.975661 28591 net.cpp:434] mbox_loc <- conv7_2_mbox_loc_flat
I1110 22:36:27.975664 28591 net.cpp:434] mbox_loc <- conv8_2_mbox_loc_flat
I1110 22:36:27.975668 28591 net.cpp:434] mbox_loc <- conv9_2_mbox_loc_flat
I1110 22:36:27.975673 28591 net.cpp:408] mbox_loc -> mbox_loc
I1110 22:36:27.975694 28591 net.cpp:150] Setting up mbox_loc
I1110 22:36:27.975698 28591 net.cpp:157] Top shape: 8 34928 (279424)
I1110 22:36:27.975702 28591 net.cpp:165] Memory required for data: 1999231040
I1110 22:36:27.975704 28591 layer_factory.hpp:77] Creating layer mbox_conf
I1110 22:36:27.975709 28591 net.cpp:100] Creating Layer mbox_conf
I1110 22:36:27.975713 28591 net.cpp:434] mbox_conf <- conv4_3_norm_mbox_conf_flat
I1110 22:36:27.975716 28591 net.cpp:434] mbox_conf <- fc7_mbox_conf_flat
I1110 22:36:27.975720 28591 net.cpp:434] mbox_conf <- conv6_2_mbox_conf_flat
I1110 22:36:27.975724 28591 net.cpp:434] mbox_conf <- conv7_2_mbox_conf_flat
I1110 22:36:27.975734 28591 net.cpp:434] mbox_conf <- conv8_2_mbox_conf_flat
I1110 22:36:27.975739 28591 net.cpp:434] mbox_conf <- conv9_2_mbox_conf_flat
I1110 22:36:27.975744 28591 net.cpp:408] mbox_conf -> mbox_conf
I1110 22:36:27.975764 28591 net.cpp:150] Setting up mbox_conf
I1110 22:36:27.975769 28591 net.cpp:157] Top shape: 8 183372 (1466976)
I1110 22:36:27.975771 28591 net.cpp:165] Memory required for data: 2005098944
I1110 22:36:27.975773 28591 layer_factory.hpp:77] Creating layer mbox_priorbox
I1110 22:36:27.975777 28591 net.cpp:100] Creating Layer mbox_priorbox
I1110 22:36:27.975780 28591 net.cpp:434] mbox_priorbox <- conv4_3_norm_mbox_priorbox
I1110 22:36:27.975785 28591 net.cpp:434] mbox_priorbox <- fc7_mbox_priorbox
I1110 22:36:27.975788 28591 net.cpp:434] mbox_priorbox <- conv6_2_mbox_priorbox
I1110 22:36:27.975791 28591 net.cpp:434] mbox_priorbox <- conv7_2_mbox_priorbox
I1110 22:36:27.975795 28591 net.cpp:434] mbox_priorbox <- conv8_2_mbox_priorbox
I1110 22:36:27.975798 28591 net.cpp:434] mbox_priorbox <- conv9_2_mbox_priorbox
I1110 22:36:27.975803 28591 net.cpp:408] mbox_priorbox -> mbox_priorbox
I1110 22:36:27.975824 28591 net.cpp:150] Setting up mbox_priorbox
I1110 22:36:27.975828 28591 net.cpp:157] Top shape: 1 2 34928 (69856)
I1110 22:36:27.975831 28591 net.cpp:165] Memory required for data: 2005378368
I1110 22:36:27.975833 28591 layer_factory.hpp:77] Creating layer mbox_conf_reshape
I1110 22:36:27.975838 28591 net.cpp:100] Creating Layer mbox_conf_reshape
I1110 22:36:27.975841 28591 net.cpp:434] mbox_conf_reshape <- mbox_conf
I1110 22:36:27.975847 28591 net.cpp:408] mbox_conf_reshape -> mbox_conf_reshape
I1110 22:36:27.975873 28591 net.cpp:150] Setting up mbox_conf_reshape
I1110 22:36:27.975878 28591 net.cpp:157] Top shape: 8 8732 21 (1466976)
I1110 22:36:27.975881 28591 net.cpp:165] Memory required for data: 2011246272
I1110 22:36:27.975884 28591 layer_factory.hpp:77] Creating layer mbox_conf_softmax
I1110 22:36:27.975889 28591 net.cpp:100] Creating Layer mbox_conf_softmax
I1110 22:36:27.975893 28591 net.cpp:434] mbox_conf_softmax <- mbox_conf_reshape
I1110 22:36:27.975896 28591 net.cpp:408] mbox_conf_softmax -> mbox_conf_softmax
I1110 22:36:27.976090 28591 net.cpp:150] Setting up mbox_conf_softmax
I1110 22:36:27.976096 28591 net.cpp:157] Top shape: 8 8732 21 (1466976)
I1110 22:36:27.976099 28591 net.cpp:165] Memory required for data: 2017114176
I1110 22:36:27.976102 28591 layer_factory.hpp:77] Creating layer mbox_conf_flatten
I1110 22:36:27.976107 28591 net.cpp:100] Creating Layer mbox_conf_flatten
I1110 22:36:27.976110 28591 net.cpp:434] mbox_conf_flatten <- mbox_conf_softmax
I1110 22:36:27.976114 28591 net.cpp:408] mbox_conf_flatten -> mbox_conf_flatten
I1110 22:36:27.976135 28591 net.cpp:150] Setting up mbox_conf_flatten
I1110 22:36:27.976140 28591 net.cpp:157] Top shape: 8 183372 (1466976)
I1110 22:36:27.976142 28591 net.cpp:165] Memory required for data: 2022982080
I1110 22:36:27.976145 28591 layer_factory.hpp:77] Creating layer detection_out
I1110 22:36:27.976153 28591 net.cpp:100] Creating Layer detection_out
I1110 22:36:27.976157 28591 net.cpp:434] detection_out <- mbox_loc
I1110 22:36:27.976161 28591 net.cpp:434] detection_out <- mbox_conf_flatten
I1110 22:36:27.976163 28591 net.cpp:434] detection_out <- mbox_priorbox
I1110 22:36:27.976168 28591 net.cpp:408] detection_out -> detection_out
W1110 22:36:27.976191 28591 detection_output_layer.cpp:49] Failed to create directory: /home/lenovo/data/VOCdevkit/results/VOC2007/SSD_300x300/Main
I1110 22:36:27.979152 28591 net.cpp:150] Setting up detection_out
I1110 22:36:27.979162 28591 net.cpp:157] Top shape: 1 1 1 7 (7)
I1110 22:36:27.979164 28591 net.cpp:165] Memory required for data: 2022982108
I1110 22:36:27.979167 28591 layer_factory.hpp:77] Creating layer detection_eval
I1110 22:36:27.979173 28591 net.cpp:100] Creating Layer detection_eval
I1110 22:36:27.979176 28591 net.cpp:434] detection_eval <- detection_out
I1110 22:36:27.979180 28591 net.cpp:434] detection_eval <- label
I1110 22:36:27.979185 28591 net.cpp:408] detection_eval -> detection_eval
I1110 22:36:27.981276 28591 net.cpp:150] Setting up detection_eval
I1110 22:36:27.981281 28591 net.cpp:157] Top shape: 1 1 21 5 (105)
I1110 22:36:27.981283 28591 net.cpp:165] Memory required for data: 2022982528
I1110 22:36:27.981287 28591 net.cpp:228] detection_eval does not need backward computation.
I1110 22:36:27.981289 28591 net.cpp:228] detection_out does not need backward computation.
I1110 22:36:27.981293 28591 net.cpp:228] mbox_conf_flatten does not need backward computation.
I1110 22:36:27.981297 28591 net.cpp:228] mbox_conf_softmax does not need backward computation.
…
